checkpoint.pth (torch, 46829 bytes, 8 tensors)

fc1.weight f4 [64, 37]
0	0xbd9631a8	-0.0733369
1	0xbc94517d	-0.018105263
2	0xbdad9674	-0.08475962
3	0x3d2eb290	0.04265076
4	0x3dc725fb	0.09724041
5	0xbdb6f46d	-0.08933339
6	0x3e22c781	0.15896417
7	0x3df35f79	0.11883444
8	0xbb94a464	-0.0045361985
9	0x3e66d6d3	0.22542886
10	0x3c4e13b3	0.012577939
11	0xbdcc39dc	-0.09971973
12	0xbe44c8e5	-0.1921726
13	0xbe1ab9b6	-0.15109906
14	0xbdbf2902	-0.093339935
15	0xbdb03859	-0.086044975
16	0xbe013dce	-0.12621233
17	0x3e0cfd95	0.13768609
18	0x3e2a1cbf	0.16612528
19	0x3e0e7e9e	0.13915488
20	0x3db5d64a	0.08878763
21	0x3c45a4e7	0.012063242
22	0xbca0dfa3	-0.019637888
23	0x3e5c254b	0.21498601
24	0x3e90577b	0.28191742
25	0x3e2204d1	0.1582215
26	0x3bfd6237	0.0077326554
27	0xbe39a961	-0.18131019
28	0xbeafdb1f	-0.34346864
29	0xbeaa1fc7	-0.3322737
30	0x3de96ccf	0.11397707
31	0xbd967bd8	-0.0734784
32	0xbde9efa6	-0.114226624
33	0xbe9da139	-0.30787066
34	0xbe7629e7	-0.24039422
35	0xbe5e8661	-0.21730949
36	0xbd04dbbe	-0.032436125
37	0x3dc8394c	0.097765535
38	0x3dd44151	0.103640206
39	0x3d6d032a	0.057864346
40	0xbe09d269	-0.13459171
41	0xbe89e3e8	-0.2693169
42	0xbdd276d6	-0.102765724
43	0xbec29753	-0.38006076
44	0xbd7cc8be	-0.06171488
45	0xbd09b226	-0.03361716
46	0xbe0e615e	-0.1390433
47	0xbd81003c	-0.06298873
48	0xbe625824	-0.22103935
49	0x3e008e6a	0.12554327
50	0xb9f2021a	-0.00046159403
51	0x3e1be367	0.15223466
52	0x3e222837	0.15835653
53	0xbe08f224	-0.1337362
54	0x3d6510fe	0.05592441
55	0xbe8cec6a	-0.2752412
56	0xbe57bd1e	-0.21068236
57	0xbe97b3a9	-0.29629257
58	0xbc13fb73	-0.009032118
59	0xbe7e519b	-0.24835818
60	0x3de50633	0.11182823
61	0x3d3c7fe1	0.046020392
62	0xbe53bd2b	-0.2067763
63	0xbe89dd8d	-0.26926842
64	0x3e30598d	0.17221661
65	0xbdabe775	-0.08393756
66	0xbe9a9f79	-0.30199793
67	0x3cd3cc89	0.025854366
68	0x3e517ab8	0.2045697
69	0x3da3fd68	0.08007318
70	0xbef4d800	-0.47821045
71	0xbf0faeea	-0.5612627
72	0x3e31e83f	0.17373751
73	0x3d65e914	0.056130484
74	0xbe3290db	-0.1743807
75	0x3e832932	0.25617367
76	0x3cb40bd6	0.0219783
77	0xbdff5a60	-0.124684095
78	0xbcd65554	-0.026163734
79	0xbea21aa2	-0.31660944
80	0xbdd179a9	-0.10228283
81	0x3ea769db	0.3269795
82	0xbe398b38	-0.18119514
83	0xbde88eb1	-0.11355341
84	0x3e1d927d	0.15387912
85	0x3d2d9405	0.04237749
86	0xbddf8551	-0.109141
87	0xbeae0cb4	-0.33994067
88	0xbda5791f	-0.08079743
89	0xbe3ca6f9	-0.1842307
90	0xbc70d121	-0.014698298
91	0x3e1e1d95	0.15440972
92	0x3ca3b542	0.019983891
93	0xbe3815c5	-0.17977054
94	0x3c90104e	0.0175859
95	0xbe8d5479	-0.2760351
96	0x3d25ccb4	0.040478423
97	0x3cfc5b8a	0.030805368
98	0xbe9ab17d	-0.30213538
99	0xbe1b6353	-0.15174608
100	0x3e0ea315	0.13929398
101	0x3e4be258	0.19910562
102	0xbd1ffe5b	-0.03906093
103	0xbeafa974	-0.3430897
104	0xbe24f64b	-0.16109578
105	0x3e087eb2	0.1332958
106	0xbe01acc4	-0.12663561
107	0xbe4518cd	-0.19247742
108	0xbd6ce689	-0.057837043
109	0xbd1fe769	-0.03903905
110	0xbcb1d0ac	-0.021705948
111	0x3e3e249a	0.1856865
112	0xbd7bbb59	-0.061457966
113	0x3d9d92a1	0.07693983
114	0xbdc128dd	-0.09431622
115	0xbf15de45	-0.5854228
116	0xbd650bfd	-0.055919636
117	0xbe8b4056	-0.27197522
118	0xbd1c8a20	-0.038217664
119	0x3e945fc6	0.2897932
120	0x3acab5a9	0.0015465516
121	0xbd714ce8	-0.058911234
122	0xbd19b415	-0.037525255
123	0x3d9b3fc7	0.07580524
124	0x3ce2868e	0.027652051
125	0xbddb6338	-0.10712284
126	0xbe87ef8f	-0.26549956
127	0x3c4da85c	0.012552347
128	0x3cd19b4b	0.025586745
129	0xbd62ecf8	-0.055401772
130	0xbebf3fe1	-0.37353423
131	0x3d7a1ef9	0.061064694
132	0xbdc465d3	-0.09589734
133	0x3bcd9771	0.0062741567
134	0x3d945fe8	0.07244855
135	0xbefe6a80	-0.49690628
136	0x3d8d7b74	0.069083124
137	0xbe8accda	-0.27109414
138	0x3e0121a9	0.12610497
139	0x3ca96c9c	0.020681672
140	0x3e1942fa	0.14966956
141	0x3e467526	0.19380626
142	0x3ea6db0b	0.32588992
143	0xbef751ff	-0.48304746
144	0xbe69341b	-0.22773783
145	0xbe860bce	-0.2618088
146	0x3d00e4c0	0.031468153
147	0x3c54f471	0.0129977325
148	0xbdcb918b	-0.099398695
149	0xbe348b81	-0.17631342
150	0xbdeba41c	-0.11505911
151	0xbe82817e	-0.2548942
152	0xbdaa7d00	-0.08324623
153	0xbe3114be	-0.17293069
154	0xbc557ec3	-0.013030711
155	0x3d93b204	0.07211688
156	0xbd051253	-0.03248818
157	0xbf2bc149	-0.67091805
158	0xbd65822c	-0.056032345
159	0xbd77c26a	-0.060488142
160	0xbe2c9158	-0.16852319
161	0x3d9cdce8	0.07659322
162	0xbea3f6c0	-0.32024193
163	0xbe0d79a7	-0.13815938
164	0x3db56d17	0.08858698
165	0xbbcfa27c	-0.0063365083
166	0xbe8801fe	-0.2656402
167	0xbe4b6db5	-0.19866069
168	0xbde53365	-0.11191443
169	0xbe8445b0	-0.25834417
170	0x3e28e02b	0.16491763
171	0xbda318ba	-0.079637006
172	0x3c46c52e	0.012131972
173	0x3a9e285c	0.0012066471
174	0xbe189654	-0.14901096
175	0x3de30184	0.110842735
176	0xbe50e149	-0.2039844
177	0xbf598aab	-0.84977216
178	0xbc1209e0	-0.008913487
179	0xbe45776a	-0.19283834
180	0x3e58282a	0.21109071
181	0xbed8d63b	-0.42350945
182	0xbe28f0a0	-0.16498041
183	0x3e2b5bc8	0.1673423
184	0x3d0a76c1	0.03380466
185	0x3da2ddd1	0.07952464
186	0xbd98aa10	-0.07454312
187	0xbc0ab9c9	-0.008467146
188	0xbe3d73c7	-0.18501197
189	0xbcf57314	-0.0299621
190	0x3e497271	0.19672562
191	0xbdd4cd6d	-0.10390744
192	0xbdc9e7cd	-0.098586656
193	0xbec4ab70	-0.38412046
194	0xbf8cee66	-1.1010253
195	0xbe32c762	-0.17458871
196	0xbe192699	-0.1495613
197	0x3d57038e	0.052493624
198	0xbe3b67b9	-0.18301286
199	0xbd3b462b	-0.045721214
200	0x3d1483c8	0.03625849
201	0x3dd0b4a0	0.101907015
202	0xbe1235f3	-0.14278392
203	0xbe9ab26f	-0.3021426
204	0xbe6ae67c	-0.22939485
205	0x3dabe37b	0.08392998
206	0xbd992e68	-0.074795544
207	0x3dd1c96b	0.102434956
208	0x3dacd1ed	0.08438478
209	0x3ca9da3d	0.020733947
210	0x3d4ad6ec	0.04952137
211	0x3cd85df5	0.02641199
212	0xbdc97d18	-0.09838313
213	0xbea50abf	-0.3223476
214	0xbedbcab7	-0.42928097
215	0xbbbed6b5	-0.005823935
216	0xbd4e7542	-0.050404795
217	0xbd2d59c9	-0.042321954
218	0xbd86a3f7	-0.065742426
219	0xbef18a3e	-0.47175783
220	0x3d2e81cc	0.042604253
221	0x3daaa2d6	0.0833184
222	0x3efa0b6e	0.48836845
223	0xbed2bcdb	-0.4115971
224	0xbee28ab4	-0.44246447
225	0xbea85d54	-0.32883704
226	0xbfca4de1	-1.5805017
227	0xbdd23ac9	-0.10265119
228	0xbd962913	-0.07332053
229	0xbcd0f81b	-0.02550893
230	0xbc604de1	-0.013690443
231	0x3e003ff3	0.12524395
232	0x3dd86131	0.10565413
233	0x3d673473	0.056446504
234	0x3de73295	0.11288945
235	0x3d103e08	0.035215408
236	0xbc697a05	-0.014250283
237	0xbe18379b	-0.14864962
238	0x3c493574	0.012280811
239	0x3db76a36	0.08955805
240	0xbd2af9d5	-0.041742165
241	0x3e2d5fb8	0.16931045
242	0x3b2cc412	0.0026361984
243	0x3d4c1145	0.049821157
244	0x3d49012c	0.049073383
245	0x3d402637	0.046911445
246	0x3e6333b6	0.22187695
247	0xbdb9fc93	-0.09081378
248	0xbdd461f2	-0.10370244
249	0xbc7c8701	-0.015413047
250	0x3c84caa4	0.016209908
251	0x3e328cdb	0.17436545
252	0xbd87bd20	-0.066278696
253	0x3dcd2a0e	0.10017787
254	0xbd122369	-0.0356783
255	0xbd6cd880	-0.057823658

fc1.bias f4 [64]
0	0x3dfc8f41	0.12332011
1	0xbd958c40	-0.07302141
2	0xbe090ba4	-0.13383347
3	0xbd5455da	-0.051839687
4	0x3e008066	0.1254898
5	0xbd1a1f47	-0.037627485
6	0xbc9210ac	-0.017830215
7	0x3dd77fee	0.105224475
8	0xbcda2ff9	-0.026634203
9	0xbdc89204	-0.09793475
10	0x3dd3899e	0.10328983
11	0x3e10cc14	0.1414035
12	0x3e493f9d	0.19653173
13	0x3db9d1d4	0.09073225
14	0xbd67dd3b	-0.056607466
15	0xbdd1caee	-0.10243784
16	0xbb6b82a4	-0.0035936022
17	0x3d4fcd72	0.050733037
18	0x3d2217ec	0.039573595
19	0xbe479f5d	-0.19494386
20	0xbd282e05	-0.041059513
21	0x3bea763f	0.0071552093
22	0x3d541a10	0.051782668
23	0xbdc31f2b	-0.09527429
24	0xbe51245e	-0.20424029
25	0x3e78bc12	0.24290493
26	0x3c19719f	0.009365468
27	0xbde10b15	-0.10988442
28	0x3e0510bc	0.12994665
29	0x3e0c8964	0.13724285
30	0x3cbbb58b	0.022913715
31	0xbe0b0230	-0.13575053
32	0x3e621cfe	0.22081372
33	0x3d1446c4	0.0362003
34	0xbdfadf16	-0.122495815
35	0x3e039c52	0.128526
36	0xbbdbbfd2	-0.0067062164
37	0x3d99eb0d	0.075155355
38	0xbd822094	-0.0635387
39	0xbe207ec8	-0.15673363
40	0xbdf2615f	-0.11834978
41	0xbcf1293e	-0.029438611
42	0xbd961548	-0.07328278
43	0x3e37803c	0.17920011
44	0xbcd06b6f	-0.025441853
45	0xbdf39017	-0.11892717
46	0xbccbd5f0	-0.024882287
47	0xbe1a6994	-0.15079337
48	0xbe20cc6c	-0.15702981
49	0x3d5c463a	0.05377791
50	0xbde00916	-0.10939233
51	0x3dd31f70	0.103087306
52	0xbd835e54	-0.06414476
53	0xbdb10b1f	-0.08644699
54	0xbe23496b	-0.15945975
55	0xbb88d89c	-0.0041762125
56	0x3ddfe659	0.10932607
57	0xbd5ce5a8	-0.053929955
58	0xbe1e2bb9	-0.15446366
59	0xbe30c6bd	-0.17263313
60	0x3cc23332	0.023706052
61	0x3c97c97f	0.018528698
62	0x3d32cbf7	0.043651547
63	0x3d6635b7	0.05620357

fc2.weight f4 [64, 64]
0	0xbde15660	-0.11002803
1	0x3e4952bd	0.19660468
2	0x3c32bd56	0.010909399
3	0x3dfc466e	0.12318121
4	0x3e813669	0.25236824
5	0x3d231f80	0.039824963
6	0x3c8809ba	0.0166062
7	0xbf0133c5	-0.5046962
8	0x3e10f954	0.14157611
9	0xbe85a304	-0.26100934
10	0xbd856e8e	-0.06515227
11	0xbe62378c	-0.22091502
12	0xbe433603	-0.19063573
13	0xbcce1bde	-0.025159772
14	0xbde2e19c	-0.11078188
15	0xbd0fe6e1	-0.035132293
16	0xbc7e8658	-0.01553496
17	0x3db804d2	0.089852944
18	0x3cc8b447	0.024500025
19	0x3e033e9d	0.12816854
20	0x3dfdc0fe	0.12390326
21	0xbeb7af75	-0.3587605
22	0x3e7cf1a8	0.2470156
23	0xbec860fe	-0.391365
24	0xbe08ccaf	-0.1335933
25	0xbdb67f25	-0.0891097
26	0x3e28368a	0.16427055
27	0xbca96af9	-0.020680891
28	0xbc1b74ad	-0.009488267
29	0xbe1ea32d	-0.15491934
30	0xbe42265b	-0.18959944
31	0xbe05287a	-0.13003722
32	0x3eaf477b	0.34234223
33	0x3b54c969	0.0032468683
34	0xbe66f942	-0.22556022
35	0xbd8ac189	-0.06775195
36	0xbe2f50d2	-0.17120674
37	0x3e424e1b	0.18975107
38	0x3c6d73ad	0.014492911
39	0x3e058aa6	0.13041171
40	0xbe84763d	-0.2587146
41	0xbd56e054	-0.05246003
42	0x3e94fb19	0.29097822
43	0xbd417809	-0.047233615
44	0x3e86b078	0.2630651
45	0xbc137a88	-0.009001382
46	0xbe118f37	-0.14214788
47	0x3e0a419c	0.1350159
48	0xbe0c42dc	-0.1369738
49	0xbd0573ee	-0.032581262
50	0xbd91ef45	-0.07125715
51	0xbd0d242f	-0.034458335
52	0xbe27cc3c	-0.16386503
53	0x3d2d1a30	0.042261302
54	0xbe9153e5	-0.2838432
55	0xbdffb0f3	-0.12484922
56	0x3e2c26be	0.16811654
57	0xbe253521	-0.16133548
58	0x3b0d8371	0.0021593238
59	0x3c65e06f	0.01403056
60	0x3dc67130	0.096895576
61	0x3e89b9d3	0.26899585
62	0xbc7f4cd8	-0.015582286
63	0xbe2d8f60	-0.16949224
64	0x3c8330d2	0.01601449
65	0x3de9421b	0.11389562
66	0xbe4c4620	-0.19948626
67	0x3e308a38	0.17240226
68	0x3d62767b	0.055288773
69	0x3dd65fe5	0.10467509
70	0x3d94f200	0.0727272
71	0x3dcba68c	0.09943876
72	0x3c8cd950	0.017193466
73	0x3d140bea	0.036144175
74	0xbc9a2e38	-0.018820867
75	0x3e826391	0.25466588
76	0xbe0590dd	-0.13043542
77	0x3eb58ef0	0.35460615
78	0xbd5c8d92	-0.05384595
79	0xbcf33684	-0.029689081
80	0x3dc83980	0.09776592
81	0x3d306129	0.04306141
82	0xbd90f83c	-0.07078597
83	0x3dec0e3d	0.11526153
84	0x3d09fbd4	0.033687428
85	0xbdcfe933	-0.10151901
86	0x3e3a170b	0.18172853
87	0xbd571152	-0.052506752
88	0x3df57bef	0.11986529
89	0x3de26d54	0.11056009
90	0xbdb0188c	-0.08598432
91	0x3c9f62b5	0.019456247
92	0x3e0d6f70	0.13812041
93	0x3def9708	0.11698729
94	0x3e8abe58	0.27098346
95	0xba8ff179	-0.0010981999
96	0xbeb0630b	-0.34450564
97	0x3b053f83	0.0020332045
98	0x3d8098ff	0.06279182
99	0xbe6b34d4	-0.22969371
100	0x3d7d4f25	0.061843056
101	0x3e38df81	0.1805401
102	0xbe21b205	-0.15790565
103	0x3cd0ff63	0.025512403
104	0xbe4fb842	-0.20285133
105	0x3c85555d	0.016276056
106	0x3c5dea01	0.01354456
107	0xbe25dc19	-0.16197242
108	0x3cfae17f	0.030625103
109	0xbe259284	-0.16169173
110	0xbc88d1a5	-0.016701529
111	0xbcb42a36	-0.021992784
112	0xbdad348e	-0.0845729
113	0xbceae090	-0.028671533
114	0x3dcd1e52	0.10015549
115	0x3e38bf10	0.18041635
116	0xbdd76c31	-0.10518683
117	0x3dada09f	0.08477902
118	0xbd6955e0	-0.056966662
119	0x3d01dc20	0.03170407
120	0xbe304786	-0.17214784
121	0xbdeaf05e	-0.11471628
122	0x3e7d0756	0.2470983
123	0x3c123b6e	0.008925302
124	0xbd8abcfd	-0.06774328
125	0xbdeba7cd	-0.11506615
126	0x3d4e13ee	0.050311975
127	0xbdba8dca	-0.09109075
128	0xbda574a8	-0.08078891
129	0xbdda0293	-0.10645022
130	0xbd048803	-0.032356273
131	0xbe0c250a	-0.13686004
132	0x3e127e2c	0.14305943
133	0xbc1cf794	-0.009580512
134	0xbe9c0603	-0.30473337
135	0xbd385092	-0.044998713
136	0x3e0fdcc2	0.14049056
137	0xbc1127e7	-0.008859611
138	0xbdc0b951	-0.09410346
139	0xbd0bf65e	-0.0341705
140	0x3cb3cb84	0.02194763
141	0x3e4fb914	0.20285445
142	0xbd57eadb	-0.05271421
143	0xba94ec35	-0.0011361899
144	0xbdbf2b1c	-0.09334394
145	0xbc794d92	-0.015216248
146	0xbc19d690	-0.009389535
147	0x3da175f7	0.07883828
148	0xbe288d82	-0.16460231
149	0x3e54dbff	0.20787047
150	0xbdde3d4b	-0.108515345
151	0x3e3429d7	0.17594086
152	0xbe0b3316	-0.13593706
153	0x3ec59192	0.38587624
154	0x3e29c348	0.165784
155	0x3e29313b	0.16522686
156	0xbe18c67e	-0.14919469
157	0x3d471570	0.04860443
158	0x3e0e0f50	0.13873029
159	0xbe08d7c7	-0.13363563
160	0xbdfdb090	-0.12387192
161	0xbd82b79e	-0.063826784
162	0xbd62a9e0	-0.055337787
163	0xbd8abecc	-0.06774673
164	0x3e15b3eb	0.14619415
165	0xbd0c243a	-0.034214236
166	0xbda44762	-0.08021428
167	0x3e19d03f	0.15020846
168	0x3e85cfa2	0.26134974
169	0xbe62a585	-0.22133453
170	0xbe8f5e92	-0.2800184
171	0xbd66a6bd	-0.056311358
172	0xbcebd657	-0.028788729
173	0x3e19c4f4	0.15016538
174	0x3da044f0	0.07825649
175	0xbe884b11	-0.2661977
176	0xbe47ff8c	-0.19531077
177	0x3ddfc8ea	0.10926993
178	0xbe83e4cb	-0.25760493
179	0xbbeb3b3f	-0.0071786935
180	0xbd754664	-0.059881583
181	0x3b9e04e3	0.00482236
182	0xbdce3755	-0.100691475
183	0xbeb6a0b2	-0.35669476
184	0xbd342ccd	-0.043988038
185	0xbea6183d	-0.32440367
186	0xbdf0cb4f	-0.11757528
187	0x3e47c2de	0.1950793
188	0xbd23206f	-0.039825853
189	0xbd429ee2	-0.047514804
190	0x3de1b59b	0.110209666
191	0x3d9cc188	0.07654101
192	0x3dac8fb7	0.08425849
193	0xbd508c6d	-0.05091517
194	0x3d0dbc81	0.0346036
195	0xbe8faa41	-0.2805958
196	0xbe1ac780	-0.15115166
197	0x3b53615c	0.0032254076
198	0xbe771df9	-0.24132527
199	0xbe023106	-0.12714013
200	0xbe398e4b	-0.18120687
201	0xbd69b643	-0.057058584
202	0x3c984664	0.018588252
203	0x3e6ce91c	0.23135799
204	0xbcf44b57	-0.029821081
205	0x3eb83edd	0.3598546
206	0xbcac500c	-0.021034263
207	0x3e19ed15	0.15031846
208	0xbd935d75	-0.0719556
209	0xbd7deda2	-0.061994202
210	0xbdb9aa2a	-0.09065659
211	0xbd3dacdd	-0.046307433
212	0x3e040f03	0.12896352
213	0x3e76b2eb	0.2409169
214	0x3e60c82b	0.21951358
215	0x3cdf415c	0.027252845
216	0x3df48ccb	0.11940917
217	0xbe112501	-0.14174272
218	0x3dacca37	0.08437007
219	0x3d34a833	0.04410572
220	0x3e46afd4	0.1940301
221	0xbeb24e9a	-0.34825593
222	0xbec47b94	-0.38375533
223	0x3d43eb60	0.047831893
224	0xbe843b4f	-0.258265
225	0x3bc48682	0.00599748
226	0x3e132cbc	0.14372534
227	0x3e4afc4c	0.19822806
228	0xbc238b88	-0.009981997
229	0x3e1fa26d	0.15589304
230	0xbc89c6fd	-0.016818518
231	0xbd23babc	-0.039973006
232	0xbce9eed0	-0.028556257
233	0x3da7a27e	0.0818529
234	0xbc7f7f1a	-0.015594268
235	0x3b658bfc	0.0035026064
236	0xbd1b56b9	-0.037924502
237	0x3ccde125	0.025131771
238	0xbc89e620	-0.016833365
239	0x3d0d0771	0.034430925
240	0x3d36a425	0.044590134
241	0xbd0131ea	-0.031541742
242	0xbdf72157	-0.12066906
243	0x3e0fe46b	0.14051978
244	0x3e02efa9	0.12786736
245	0x3d4edf98	0.050506204
246	0xbd0b3fee	-0.033996515
247	0x3d6f105f	0.058365222
248	0xbe85c916	-0.2612998
249	0x3ce4edf8	0.027945504
250	0xbdd5cc2b	-0.104393326
251	0x3dbcf1a3	0.09225776
252	0xbe1a107d	-0.15045352
253	0xbd667a30	-0.05626887
254	0xbd4933c5	-0.049121637
255	0xbdb4d1eb	-0.08829101

fc2.bias f4 [64]
0	0xbd3b88e8	-0.04578486
1	0xbba4cde2	-0.005029426
2	0x3dcf31fd	0.101169564
3	0x3e1d1bc2	0.1534262
4	0x3e0ca097	0.13733135
5	0xbe2d4df5	-0.1692427
6	0xbe221674	-0.15828878
7	0x3d2d1a8e	0.042261653
8	0x3c92c715	0.017917195
9	0x3dd1f414	0.10251632
10	0xbda4d351	-0.08048118
11	0x3e0bc53c	0.13649458
12	0x3ddabf07	0.10680967
13	0xbcf90fd1	-0.03040305
14	0x3a9e35d6	0.0012070488
15	0x3d9dae8e	0.07699309
16	0xbac79725	-0.001522754
17	0x3ad82e18	0.0016493229
18	0xbd6e5caf	-0.05819386
19	0x3d0fa47b	0.03506897
20	0x3df1b5ff	0.11802291
21	0x3e3dc091	0.1853049
22	0x3b2751ee	0.0025531012
23	0xbdb0ecd9	-0.08638925
24	0x3d48c620	0.04901707
25	0xbd2eeb58	-0.04270491
26	0x3e178f50	0.14800763
27	0xbd92585b	-0.07145759
28	0xbdff2afd	-0.12459371
29	0x3df6866b	0.12037357
30	0x3e01c8f4	0.12674314
31	0xbdc7b73f	-0.09751748
32	0xbd520e66	-0.051283263
33	0x3d571648	0.052511483
34	0xbc8631f0	-0.016381234
35	0xbd3f86fb	-0.046759587
36	0xbdef6c79	-0.116906114
37	0xbdd19c46	-0.10234885
38	0x3e038fa6	0.12847766
39	0x3d098e99	0.033583257
40	0xbe133592	-0.14375904
41	0x3dc4a4cf	0.09601747
42	0x3d34fc1a	0.044185735
43	0x3cd8e719	0.026477383
44	0xbcc6b9e8	-0.024258569
45	0xbd471f3e	-0.04861378
46	0xbdc52699	-0.096265025
47	0xbd958ddb	-0.073024474
48	0xbc651b5f	-0.013983577
49	0xbd8b63ea	-0.068061665
50	0xbdba8c86	-0.09108834
51	0x3deeb80d	0.11656199
52	0xbda02151	-0.078188546
53	0xbd3cd330	-0.04609984
54	0xbd888d06	-0.06667523
55	0xbda517d2	-0.08061184
56	0xbe31bfbf	-0.17358302
57	0xbd8ce94b	-0.068804346
58	0xbd434bd1	-0.047679726
59	0x3dc5aa7a	0.096516564
60	0x3e1f072c	0.1553008
61	0x3cc4678f	0.023975162
62	0x3dcca1d7	0.09991806
63	0xbddb4ce4	-0.10708025

fc3.weight f4 [64, 64]
0	0xbe2175e7	-0.15767632
1	0x3e1b8119	0.15185966
2	0xbd9ca679	-0.0764894
3	0xbcea8702	-0.02862883
4	0x3e2313ff	0.15925597
5	0xbd525178	-0.051347226
6	0x3ee36396	0.44411916
7	0xbe1c4d48	-0.15263855
8	0x3d460e99	0.048353765
9	0xbdc7f052	-0.09762634
10	0xbda9c962	-0.08290364
11	0x3e483a74	0.19553548
12	0x3d9085b1	0.070567496
13	0x3d297f1a	0.04138098
14	0x3ea6dffb	0.3259276
15	0xbb89eb1d	-0.004208936
16	0xbe26d42f	-0.16291879
17	0x3c9bd762	0.019023601
18	0x3dea6eb1	0.11446894
19	0x3ea6ccc5	0.32578102
20	0xbd2d58ca	-0.042321004
21	0x3dbcefa2	0.09225394
22	0x3d4a59ca	0.049402036
23	0xbe22575b	-0.15853636
24	0xbd9af56b	-0.07566341
25	0xbdc952f6	-0.09830277
26	0x3dd827c5	0.105544604
27	0xbdff3997	-0.12462156
28	0xbd1a67c9	-0.037696633
29	0xbca8aeb6	-0.020591121
30	0x3d7ab961	0.061211947
31	0x3dc7ee33	0.0976223
32	0x3da38f97	0.07986372
33	0x3dc474a1	0.09592558
34	0x3e08a1ec	0.13343018
35	0xbd12e553	-0.035863232
36	0xb8167266	-3.586933e-05
37	0x3e211457	0.15730415
38	0xbd907ed5	-0.07055441
39	0xbcd23f18	-0.025664851
40	0x3e668c54	0.22514468
41	0xbdf1f495	-0.118142284
42	0xbc6c087e	-0.014406322
43	0x3e8b573a	0.27214986
44	0x39910483	0.00027659917
45	0x3c821fa7	0.015884234
46	0xbe1f0bae	-0.15531799
47	0x3d79161f	0.060812112
48	0xbe745c88	-0.23863423
49	0x3e460a6a	0.1933991
50	0xbdf4b95f	-0.11949419
51	0x3e1cdbe0	0.1531825
52	0x3cfa3845	0.03054441
53	0xbe361987	-0.17783175
54	0xbb88c32b	-0.0041736565
55	0x3c849d69	0.01618834
56	0x3c214beb	0.00984476
57	0x3e85e123	0.26148328
58	0x3e020f93	0.12701254
59	0x3d0c4c1d	0.034252275
60	0xbda75e04	-0.08172229
61	0x3e9f58f9	0.31122568
62	0x3d78a6ef	0.060706075
63	0x3e9e387c	0.3090247
64	0x3dfdbede	0.12389921
65	0xbaf61328	-0.001877402
66	0x3c68deaa	0.0142132435
67	0xbe35ba4d	-0.1774685
68	0xbc695007	-0.014240271
69	0x3dda7c60	0.10668254
70	0x3e6b13c1	0.22956754
71	0xbe939465	-0.28824154
72	0xbd9ebba9	-0.07750637
73	0x3d968aac	0.07350668
74	0x3d6eadd0	0.05827123
75	0xbb98be51	-0.0046613594
76	0xbe73b269	-0.23798527
77	0xbcc99fd7	-0.02461235
78	0xbdf2dc2f	-0.11858403
79	0x3c2af5c8	0.010434575
80	0xbe0a81aa	-0.13526025
81	0x3cfb35c8	0.030665293
82	0xbd2b95e0	-0.04189098
83	0x3eb1e751	0.34746793
84	0x3e18ebb5	0.14933665
85	0x3d85b36e	0.06528364
86	0xbd32e86e	-0.043678693
87	0x3d90aab7	0.07063811
88	0xbd0e316c	-0.0347151
89	0xbdb32fed	-0.087493755
90	0xbddb2dc9	-0.10702092
91	0xbe4210a2	-0.18951657
92	0xbdc23fbc	-0.094848126
93	0x3daa0238	0.083012044
94	0x3dc7fae9	0.09764654
95	0x3e3f7ae6	0.18699226
96	0x3c881123	0.016609734
97	0xbe185cb4	-0.14879113
98	0x3d182843	0.03714777
99	0xbcab4d30	-0.02091083
100	0x3e289353	0.1646245
101	0xbb8867a2	-0.0041627446
102	0x3e03ad06	0.12858972
103	0x3d8e99d5	0.06962935
104	0x3e3b4e49	0.18291582
105	0x3d0ea9f4	0.03483005
106	0xbd2c23b5	-0.04202624
107	0x3eddd929	0.43329743
108	0xbdd2dbc6	-0.10295825
109	0x3dfd70d3	0.12375035
110	0x3d7bfb71	0.06151909
111	0xbc78556c	-0.015157085
112	0xbe3b0cca	-0.18266597
113	0x3ce1206a	0.027481277
114	0x3c96b6e1	0.01839775
115	0xbce9f692	-0.028559957
116	0x3e3cb65e	0.18428943
117	0x3d9999c3	0.07500031
118	0x3c924da0	0.01785928
119	0xbe1e5909	-0.15463652
120	0xbd99ff46	-0.07519393
121	0xbdbdf652	-0.092754975
122	0x3e1df5ac	0.15425748
123	0xbdd83a1a	-0.10557957
124	0xbd9b1829	-0.075729676
125	0xbe83c0ff	-0.25733182
126	0xbe374a3f	-0.17899416
127	0x3defe9ff	0.11714553
128	0x3e2587fb	0.16165154
129	0xbbbb2d57	-0.005712192
130	0x3daba074	0.083802134
131	0xbba85c24	-0.005137937
132	0x3d5982f5	0.053103406
133	0xbdb392ac	-0.0876821
134	0x3ce04493	0.027376449
135	0x3e30e228	0.17273772
136	0x3d91ccbd	0.07119129
137	0x3de39924	0.11113194
138	0xbe76ee47	-0.24114333
139	0x3ddd7a77	0.10814374
140	0x3e3c6a81	0.18400003
141	0x3d5d2b66	0.053996466
142	0x3de736b5	0.112897314
143	0x3bce2a1f	0.0062916423
144	0xbe335570	-0.1751306
145	0xbd243065	-0.040085215
146	0x3df7a674	0.12092295
147	0x3e7eeada	0.24894276
148	0xbe3d0df2	-0.18462351
149	0x3cc8d971	0.024517747
150	0xbd809c66	-0.06279831
151	0xbd1cc497	-0.03827342
152	0x3d8d0ecb	0.06887587
153	0xbcfe5982	-0.03104854
154	0xbbfde4f0	-0.0077482387
155	0x3d7274ec	0.059193537
156	0x3dbbca40	0.091694355
157	0x3db3a3c7	0.087714724
158	0x3e499b82	0.19688228
159	0xbdfd4d46	-0.12368254
160	0xbd62961a	-0.05531893
161	0xbeaf72f3	-0.34267387
162	0xbe7a2a6a	-0.24430242
163	0x3e463696	0.1935676
164	0xbe03420c	-0.12818164
165	0x3d19885a	0.03748355
166	0x3db89b4b	0.09013995
167	0xbe530190	-0.20606065
168	0x3dd04a75	0.101704516
169	0x3d18452d	0.037175346
170	0xbe3ea3f6	-0.18617234
171	0x3ea0fd1e	0.31443113
172	0xbe3d3664	-0.1847778
173	0x3e317397	0.1732925
174	0x3e10e5cc	0.1415016
175	0xbe02e03d	-0.12780853
176	0xbe439704	-0.19100577
177	0x3dd41b54	0.10356775
178	0xbeea423e	-0.45753664
179	0x3e222cdd	0.15837426
180	0x3d9009b4	0.07033101
181	0xbcd43b81	-0.02590728
182	0x3dd307c1	0.10304213
183	0x3e45b72f	0.1930816
184	0xbe764df0	-0.24053168
185	0x3cc223e2	0.02369875
186	0x3e58f14f	0.21185802
187	0xbe609789	-0.21932806
188	0xbd97a772	-0.074049845
189	0x3e2e0808	0.16995251
190	0xbe6415fe	-0.22274014
191	0x3e3919af	0.18076204
192	0x3ddbf8a0	0.10740781
193	0x3e1a4d08	0.15068448
194	0xbdfe170d	-0.1240674
195	0xbcb923ae	-0.022600021
196	0xbe2c276d	-0.16811915
197	0xbe374acf	-0.17899631
198	0x3dbede78	0.09319776
199	0x3e35e32b	0.17762439
200	0x3e2ba06a	0.16760412
201	0x3e5cc0ce	0.21557924
202	0x3e24dd49	0.16100039
203	0xbd6306cb	-0.0554264
204	0x3d4d8ca0	0.05018294
205	0x3d42a046	0.04751613
206	0xbc80685b	-0.01567476
207	0xbe3ca2c3	-0.18421464
208	0xbdc46353	-0.09589257
209	0xbdf4879c	-0.11939928
210	0x3eb6bfbb	0.35693154
211	0x3e90543d	0.2818927
212	0xbee89efc	-0.45433795
213	0xbd537672	-0.05162663
214	0xbd8ddd46	-0.0692697
215	0xbe058487	-0.13038836
216	0x3cc5baca	0.02413692
217	0x3d8469e3	0.06465509
218	0xbe0abe0b	-0.13549058
219	0x3c455d54	0.012046177
220	0x3ce668aa	0.02812608
221	0xbe0fbd22	-0.14036992
222	0x3e04edaa	0.12981287
223	0x3eb5c76d	0.35503712
224	0x3d450b3c	0.048106417
225	0x3e3d41e6	0.1848217
226	0xbe964dda	-0.2935627
227	0xbe3319d5	-0.17490323
228	0xbe13dfd8	-0.14440858
229	0xbd0a7459	-0.033802364
230	0x3e8fd1d1	0.28089765
231	0xbc65cd62	-0.014026018
232	0x3deb8c82	0.11501409
233	0x3dbb1523	0.09134891
234	0xbdc0899b	-0.09401246
235	0x3d3496c7	0.044089105
236	0xbdf7370a	-0.12071045
237	0xbe32f2d9	-0.17475452
238	0x3cc897e0	0.024486482
239	0xbe4503d9	-0.19239749
240	0xbdf76194	-0.120791584
241	0xbe6e6e41	-0.23284246
242	0xbdac8630	-0.08424032
243	0xbe85063d	-0.25981322
244	0x3e870fa7	0.2637913
245	0x3e3b5a5b	0.18296187
246	0x3d5e0a18	0.054208845
247	0x3e860ff4	0.26184046
248	0xbe941403	-0.28921518
249	0xbdc2038d	-0.094733335
250	0x3d940f72	0.072295085
251	0xbe2ba1b1	-0.16760899
252	0xbd5249e2	-0.05133999
253	0x3da70c0f	0.08156597
254	0x3ccc67fd	0.02495193
255	0xbd9e8051	-0.07739318

fc3.bias f4 [64]
0	0xbde2d685	-0.110760726
1	0x3e1bb591	0.15205981
2	0x3c865c80	0.01640153
3	0xbdd0e7ca	-0.1020046
4	0xbe725666	-0.23665771
5	0x3d8442df	0.06458067
6	0xbea2712c	-0.31726968
7	0x3e4a2ab9	0.1974286
8	0xbe29368f	-0.16524719
9	0x3eb4b75d	0.35296145
10	0x3ea609a0	0.32429218
11	0xbcc4b698	-0.024012849
12	0x3e76e225	0.24109705
13	0xbdbdea01	-0.09273148
14	0xbd8cdbd5	-0.06877867
15	0x3c1a4710	0.009416357
16	0xbe1253b4	-0.14289743
17	0x3cd21ad0	0.02564755
18	0xbb8c112a	-0.004274507
19	0x3ea5c734	0.32378542
20	0x3e86b23a	0.2630785
21	0x3d6f231e	0.0583831
22	0xbd368e05	-0.044569034
23	0x3cb92e1f	0.022605
24	0xbe9f1264	-0.31068718
25	0xbc809e6d	-0.015700543
26	0xbd39735a	-0.045276023
27	0x3dbacfc9	0.09121663
28	0xbd7a2e3b	-0.061079245
29	0x3e7eb7b2	0.24874762
30	0xbda34abf	-0.07973241
31	0xbd18844c	-0.037235543
32	0xbd64c8c4	-0.055855528
33	0x3de26b32	0.11055602
34	0x3e981b75	0.29708448
35	0xbd1c58c0	-0.038170576
36	0xbe258eac	-0.16167706
37	0x3df65e63	0.120297216
38	0x3d9a7e73	0.075436495
39	0xbc6b2e3d	-0.014354286
40	0x3c753fcd	0.014968825
41	0x3e73c9c0	0.2380743
42	0x3de94c73	0.11391535
43	0x3e03afad	0.12859984
44	0x3db8307e	0.08993624
45	0xbdbd66f8	-0.09248155
46	0x3cd03917	0.025417848
47	0x3d8861da	0.06659289
48	0xbe02f640	-0.1278925
49	0x3e9cad20	0.30600834
50	0x3d9157b8	0.07096809
51	0x3e9aac5b	0.30209622
52	0xbe0c99d3	-0.13730554
53	0x3dd6162c	0.10453448
54	0x3e344c70	0.17607284
55	0x3d2e7023	0.04258741
56	0xbd21684c	-0.039406106
57	0x3bce8533	0.0063024997
58	0x3ebee064	0.3728057
59	0x3bc86ec7	0.0061167213
60	0xbdaf6a68	-0.08565217
61	0x3eaf1234	0.34193575
62	0xbdc4fba5	-0.0961831
63	0x3d3e9be4	0.046535388

fc4.weight f4 [4, 64]
0	0xbe3a71fd	-0.18207546
1	0x3e028e6e	0.12749645
2	0x3cb4ee87	0.022086395
3	0x3df58692	0.11988558
4	0xbe5b1186	-0.21393403
5	0xbdf3c829	-0.11903412
6	0xbe51e8c0	-0.20498943
7	0x3d9a4f95	0.0753471
8	0x3d8d07ce	0.06886254
9	0x3e801a08	0.2501986
10	0x3e1a95aa	0.15096155
11	0xbe8d6753	-0.27617893
12	0x3df845a9	0.121226616
13	0xbdb19e34	-0.08672753
14	0x3ddf2139	0.108950086
15	0xbdf6da70	-0.120533824
16	0xbd24d7c4	-0.040244833
17	0xbda490d7	-0.080354385
18	0x3daa4631	0.08314169
19	0x3e0ca598	0.13735044
20	0x3da7fec2	0.08202888
21	0x3dde5fa7	0.10858088
22	0xbe467c88	-0.19383442
23	0xbe67e7cd	-0.22647019
24	0xbe426f29	-0.18987717
25	0x3e8af832	0.27142483
26	0x3e9ee5b8	0.31034636
27	0x3d36acde	0.044598453
28	0x3cbb0a1d	0.02283197
29	0x3e2af67d	0.1669559
30	0xbe8acffc	-0.27111804
31	0xbe101448	-0.14070237
32	0x3d2eb89d	0.04265653
33	0xbe98293b	-0.29718956
34	0x3e4bcaa9	0.19901527
35	0x3e988601	0.29789737
36	0xbdbacb55	-0.09120814
37	0x3d675914	0.056481436
38	0x3df87e66	0.121334836
39	0x3cda0be6	0.026617002
40	0xbe647ab4	-0.22312433
41	0x3e27ef85	0.16399963
42	0xbeafd91d	-0.34345332
43	0xbecf903b	-0.40539727
44	0x3ef4ae06	0.4778902
45	0x3deec7af	0.116591804
46	0xbeeae8f2	-0.45880848
47	0x3e8e4bfc	0.27792346
48	0xbd92671e	-0.07148574
49	0x3e61b7d7	0.22042786
50	0x3e77edcf	0.2421181
51	0x3e965136	0.29358834
52	0x3c3ed6b0	0.011647865
53	0xbd308c4b	-0.043102544
54	0x3e9ae071	0.3024936
55	0xbd9d68a5	-0.07685975
56	0x3d97bcda	0.074090675
57	0xbe72dc71	-0.23716904
58	0x3e0b89bf	0.13626765
59	0x3e25ac9b	0.16179125
60	0x3d5712cb	0.052508157
61	0x3e226ca0	0.1586175
62	0x3e27aee1	0.16375305
63	0xbee36f73	-0.44420967
64	0x3ca81f40	0.020522714
65	0x3d9c3985	0.076281585
66	0xbc62b8ff	-0.013838052
67	0x3ede2348	0.43386292
68	0xbe4b2612	-0.19838741
69	0xbe9b6bae	-0.3035559
70	0xbd489fdd	-0.048980583
71	0x3e679137	0.22613989
72	0x3c2570c7	0.010097689
73	0x3d5b8a6f	0.053598817
74	0x3e6055ea	0.21907774
75	0x3c897a09	0.016781824
76	0x3d101351	0.03517467
77	0x3e6bffa1	0.23046733
78	0xbe7b484a	-0.24539295
79	0x3df458dc	0.11931011
80	0x3cd51b2d	0.026013935
81	0x3d499765	0.049216647
82	0x3ca92778	0.020648703
83	0x3e51a0a3	0.20471434
84	0x3df1ba85	0.11803154
85	0x3e0b572d	0.13607474
86	0xbc5197cf	-0.012792542
87	0xbe004e15	-0.12529786
88	0xbe408ddb	-0.18804114
89	0x3eb7daf5	0.35909238
90	0x3eb8c5f3	0.36088523
91	0x3e23305a	0.15936413
92	0x3e457b91	0.19285418
93	0x3e0c25bf	0.13686274
94	0xbe26a143	-0.16272454
95	0x3d9ee92a	0.07759316
96	0x3e1f9d67	0.15587388
97	0xbe200f57	-0.15630852
98	0x3ce075af	0.027399866
99	0x3e8a5723	0.27019605
100	0xbdc7b2ff	-0.09750938
101	0x3dcb43a7	0.09925013
102	0x3e0149eb	0.12625854
103	0x3e7c9fff	0.24670409
104	0x3dc6117c	0.09671304
105	0x3d19b314	0.037524298
106	0xba891e78	-0.0010461351
107	0xbe305e53	-0.17223482
108	0x3e24ccd4	0.1609376
109	0xbf019b19	-0.50627285
110	0xbda0b79f	-0.07847523
111	0x3e4839c0	0.1955328
112	0x3dc48dee	0.095973834
113	0x3db0a78c	0.08625707
114	0x3e357511	0.17720439
115	0x3eac035e	0.3359632
116	0x3d882da9	0.06649334
117	0x3debdfc0	0.11517286
118	0x3e331679	0.17489041
119	0x3d623628	0.05522743
120	0x3d34baf6	0.044123612
121	0xbe9dd2f6	-0.30825013
122	0x3df52bcc	0.11971244
123	0x3e743f92	0.23852375
124	0xbdc2462a	-0.09486039
125	0x3e6f09f4	0.2334364
126	0xbdd7051b	-0.10499021
127	0x3dcfca5b	0.10146018
128	0x3d99344c	0.07480678
129	0x3d7f44a2	0.062321313
130	0x3d9f19a9	0.07768566
131	0x3d7cd360	0.06172502
132	0xbe8a90d7	-0.2706363
133	0x3efa4cc6	0.48886698
134	0x3d2a83e6	0.041629694
135	0x3c8d8ccd	0.017279053
136	0x3df8b606	0.12144093
137	0x3e4a262b	0.19741122
138	0x3e116ecf	0.14202426
139	0x3e25c810	0.16189599
140	0x3e3f02f3	0.18653469
141	0x3d24e5f4	0.040258363
142	0xbe95ede7	-0.29283068
143	0xbe2b63b2	-0.1673725
144	0xbd307a08	-0.043085128
145	0x3d5d524d	0.054033566
146	0x3e52fff5	0.20605452
147	0x3e217ee0	0.15771055
148	0x3e2e1111	0.16998698
149	0x3d2161c8	0.039399892
150	0xbde669a0	-0.11250615
151	0xbe86d89f	-0.26337144
152	0xbef49227	-0.47767755
153	0xbde59cd2	-0.11211552
154	0xbda74829	-0.0816806
155	0x3dc71435	0.09720651
156	0xbe894b8b	-0.26815447
157	0x3dd248ae	0.10267769
158	0xbe84bc96	-0.2592513
159	0xbe9896ab	-0.2980245
160	0x3de78614	0.1130487
161	0xbe44107e	-0.19146916
162	0x3e281295	0.16413338
163	0x3e697d53	0.22801714
164	0x3e385e78	0.18004787
165	0xbdb9c59d	-0.09070895
166	0x3d8dd3f6	0.06925194
167	0x3e12cc7b	0.14335816
168	0xbefcb032	-0.49353176
169	0x3d0d2a9d	0.034464467
170	0x3e6d3ddd	0.2316813
171	0x3df0f32e	0.11765133
172	0x3e0f945f	0.14021443
173	0xbdf324f8	-0.118722856
174	0xbd8271d4	-0.06369367
175	0x3c097d79	0.008391731
176	0x3d878e59	0.066189475
177	0x3dca3093	0.09872546
178	0x3e6dbe44	0.23217112
179	0x3ee1646e	0.44021934
180	0x3d9f8b34	0.07790223
181	0x3eae32af	0.34023044
182	0x3eb21f21	0.34789374
183	0x3e796d03	0.24357991
184	0x3d6b50c6	0.05745008
185	0xbeab760c	-0.334885
186	0x3dfd9fc0	0.123839855
187	0x3e6abfad	0.22924681
188	0xbe935d3b	-0.28782067
189	0x3e07f6f2	0.13277796
190	0xbea13df1	-0.3149257
191	0x3e159940	0.14609241
192	0x3e0a618e	0.13513777
193	0x3e939fb2	0.28832775
194	0x3e861f76	0.26195878
195	0x3e88ed21	0.26743415
196	0xbe8dce0f	-0.27696273
197	0xbeb09d66	-0.34495085
198	0xbef962c5	-0.48708168
199	0x3e8555fe	0.2604217
200	0xbf018bb0	-0.5060377
201	0x3e6f0753	0.23342638
202	0x3e2852eb	0.1643788
203	0x3de0d4b6	0.109780714
204	0x3c976bb4	0.018483974
205	0xbe92a6bf	-0.28642842
206	0xbee1364d	-0.4398674
207	0xbe91420e	-0.28370708
208	0xbde3d389	-0.111243315
209	0x3d95b48a	0.07309826
210	0x3c21b79b	0.009870435
211	0x3de7400c	0.11291513
212	0x3e23ad12	0.1598399
213	0x3e225d44	0.1585589
214	0x3df045d6	0.1173207
215	0x3d80dbc5	0.06291918
216	0x3cf4f650	0.029902607
217	0x3f19eb14	0.60124326
218	0xbddb146a	-0.10697253
219	0x3e2b2235	0.16712268
220	0xbe1ddab5	-0.15415461
221	0x3d3059d5	0.04305442
222	0xbd6e12da	-0.058123447
223	0x3eab88e4	0.33502877
224	0xbe12256c	-0.14272088
225	0x3e6a08b7	0.22854887
226	0x3e756d32	0.23967436
227	0x3b841026	0.0040302454
228	0xbdbf324e	-0.09335767
229	0xbd4aa338	-0.049472064
230	0x3cd360a6	0.025802922
231	0x3e30f6e0	0.17281675
232	0xbe0d89dd	-0.13822122
233	0x3e314269	0.1731049
234	0xbe7d217f	-0.24719809
235	0x3e7d1eea	0.24718824
236	0x3e154119	0.14575614
237	0xbe67dba5	-0.22642381
238	0x3e66c97f	0.22537802
239	0x3e584f57	0.21124016
240	0x3da8fb58	0.08251065
241	0x3dbcef14	0.09225288
242	0xbdda1518	-0.106485546
243	0x3ed15f72	0.40893131
244	0xbadfdc00	-0.0017079115
245	0xbec318d8	-0.38104892
246	0x3e077cc1	0.13231184
247	0x3da1ed2b	0.07906564
248	0x3d47a8e4	0.04874505
249	0xbe271333	-0.16315918
250	0x3e34cab6	0.17655453
251	0x3e760d35	0.24028476
252	0x3e26bee2	0.16283754
253	0x3e2cd8a9	0.16879524
254	0x3dff8012	0.12475599
255	0xbe6abe0a	-0.22924057

fc4.bias f4 [4]
0	0x3dfdcb94	0.12392345
1	0x3e391c75	0.18077262
2	0x3e543703	0.2072411
3	0x3db46323	0.08807971
