checkpoint.pth (torch, 46829 bytes, 8 tensors)

fc1.weight f4 [64, 37]
000000 e0 a0 44 3e b9 ed b1 bd 33 9a 2b be 88 77 f5 bd
       0.19201994 -0.0868792 -0.16758041 -0.119856894
000010 44 ca 52 be 05 9f 73 3d 3f 83 84 bc 3b 3a 28 3e
       -0.2058497 0.059477825 -0.016175864 0.16428463
000020 c8 ae 64 be c3 61 1b be 2a 3b 69 bd f6 56 0b 3d
       -0.22332299 -0.15174012 -0.05694119 0.03401848
000030 72 f9 d6 bd 96 a0 70 be 8d b7 97 bd 25 cf 0d 3e
       -0.10496797 -0.23498759 -0.074080564 0.1384855
000040 ce da 00 be 00 e2 87 3c 63 47 97 3d cc 7d 3f 3c
       -0.12583467 0.016587257 0.07386663 0.011687707
000050 3d ea 48 3e 76 5d 1e 3e 15 b7 1a bb 15 3b 93 3c
       0.19620605 0.1546534 -0.002360766 0.017972508
000060 39 c7 f9 3d c4 9b 88 3d 7e 79 43 3e 6b 0a 40 be
       0.12196202 0.06670335 0.19089314 -0.18753974
000070 c7 23 24 be 18 26 1a be 15 c2 c0 3d ac 71 d6 3d
       -0.16029273 -0.15053594 0.09412018 0.104709
000080 cf ae 80 be f3 95 9e be ea ff 35 bf f6 68 72 bd
       -0.25133368 -0.30973777 -0.7109362 -0.05918213
000090 cd 2e 24 bd d5 0b 50 3e 8d 14 2a be bd 2a c5 bd
       -0.040083695 0.20317014 -0.16609402 -0.09627292
0000a0 2a 9a 26 bd ec e6 11 bf 2e 3a 5c bd 1e 3f 01 be
       -0.040674366 -0.56992984 -0.053766422 -0.12621734
0000b0 b5 a2 5c bd ee 4f e1 be f8 bb de be a0 8b b1 3d
       -0.053866107 -0.44006294 -0.43502784 0.086692095
0000c0 7e 4e c3 bd 67 6f 8e bd 8b 05 5d bd 2c 57 5a bd
       -0.095364556 -0.06954842 -0.053960364 -0.05330579
0000d0 79 c9 27 3e e2 74 47 be 9a e6 8d bd 8f 66 9e be
       0.1638545 -0.19478181 -0.069287494 -0.3093762
0000e0 bb f4 3d bd 72 3f 6b be 42 82 3a bd 51 e1 16 be
       -0.04637597 -0.22973421 -0.04553438 -0.14734389
0000f0 76 cf 74 bd 5d 31 1c 3c 03 4e 72 3d 66 8a c3 be
       -0.059768163 0.0095332535 0.05915643 -0.38191527
000100 9a 76 ee bd 2a e2 ee be 3e 0c d3 be 1d 29 2a 3d
       -0.11643715 -0.46656924 -0.41220278 0.041543115
000110 8c 4d c7 3c 8e 76 6e 3d af da ce bd 60 0e be be
       0.02432897 0.05821853 -0.10100304 -0.37120342
000120 a8 c3 96 3e 2e cb 38 3d c6 4e 3a 3c b7 55 18 3e
       0.2944615 0.045115642 0.01137132 0.14876448
000130 14 1e 66 3d ae 94 1b 3e 9a 0f d3 3d fe 83 41 be
       0.05618103 0.15193436 0.1030571 -0.18898007
000140 ef 06 6c bc 5b 9f bd 3d 0a 4e c9 3e d3 49 81 be
       -0.01440595 0.0925891 0.39317352 -0.25251636
000150 a3 14 9f bd f5 07 42 bd 44 78 cd bb 38 66 9d 3c
       -0.07767608 -0.04737087 -0.0062704403 0.01921378
000160 60 2c b7 be 10 6b 0f be fc ea 63 3d 19 e9 d1 3d
       -0.35776043 -0.14005685 0.05564402 0.10249538
000170 f0 a1 3a 3e 45 65 0c 3d 96 8f ac be e1 02 8b bd
       0.18225837 0.034276266 -0.33703297 -0.067876585
000180 f5 d9 51 3e 63 48 0d 3e 06 5b f7 bd 9a 80 87 be
       0.204933 0.13797145 -0.12077908 -0.26465303
000190 09 73 61 3e a0 c3 7c 3e ba 72 4c 3d dd ec 22 bd
       0.22016539 0.24684 0.0499141 -0.03977667
0001a0 01 7a a4 be 2d ec c6 3d 06 99 b8 bc 9c b2 8d bd
       -0.32124332 0.09713016 -0.022533905 -0.06918833
0001b0 42 ab 7f 3d c3 cc c0 bd b4 d9 93 bc 67 07 d2 3d
       0.062419184 -0.09414055 -0.018048145 0.10255318
0001c0 5d 4d f1 bd 99 f7 58 3e 7f a6 a7 3d d5 e4 88 3b
       -0.11782334 0.21188201 0.081860535 0.0041776695
0001d0 de 2d 27 bc 8d 89 ea 3c b3 b3 5e 3d 83 df 80 3d
       -0.010203807 0.028630042 0.054370593 0.062926315
0001e0 f2 50 eb 3d 28 2b bc 3e aa a7 b3 be 10 82 fa bd
       0.114900485 0.36751676 -0.35088855 -0.12231839
0001f0 98 26 02 bf b2 e3 a2 bf 5c 41 9d 3d 89 11 51 bd
       -0.5084014 -1.2725737 0.07678482 -0.051042113
000200 b3 4c a3 bd f7 98 46 be 2a a7 38 bd e8 aa a4 3b
       -0.079736136 -0.19394289 -0.045081295 0.0050252564
000210 48 55 05 3c e9 c6 a2 3d ce d1 49 3e 19 da 06 3d
       0.008138008 0.07948095 0.1970894 0.032922838
000220 18 87 b9 3d 0b af 99 bc ee a6 bf 3c d7 94 13 3e
       0.0905897 -0.018760225 0.023395028 0.14412247
000230 f2 7a aa bb 7f 71 9d 3d ae d6 94 3e eb b4 91 3c
       -0.0052026445 0.07687663 0.29070038 0.017786464
000240 47 7f 98 bd f0 dc 7b bd d2 68 90 bb 31 e7 b4 38
       -0.07446151 -0.06149 -0.004407027 8.6261316e-05
000250 3b cd 1d bd ef 93 3b bd 03 42 de be bd fc 9f be
       -0.0385258 -0.045795377 -0.43409738 -0.31247512
000260 36 39 ad 3d b2 0d 47 be f3 ed 07 be 76 75 9e bb
       0.08458178 -0.19438818 -0.13274364 -0.00483578
000270 54 79 03 be 63 6d d6 be 8b 63 71 bd b9 23 f0 bd
       -0.12839252 -0.4188033 -0.058932822 -0.117255636
000280 c3 be 30 bc 4f 8c bd be b9 10 e8 be 21 a0 91 be
       -0.010787669 -0.3702111 -0.45325258 -0.2844248
000290 49 07 9f be 07 b7 8f bd 01 0b c1 bb 0f ba 9f ba
       -0.31060246 -0.070173316 -0.0058912043 -0.0012186187
0002a0 db d2 3c be 0d c5 d8 be cb a9 2c 3e ba 79 f5 be
       -0.1843981 -0.42337838 0.16861646 -0.47944432
0002b0 47 ad ee be 95 cc c6 bd 33 f4 e2 bd 22 ff 2d 3d
       -0.46616575 -0.0970699 -0.110817336 0.04247964
0002c0 49 77 35 3e c6 aa 99 bd 2e 73 63 bd 0b c8 78 be
       0.17721285 -0.075032756 -0.055529766 -0.2429506
0002d0 ec 97 a0 3d 8e ee f7 bd 03 b1 cf be e4 66 66 be
       0.07841477 -0.121060476 -0.40564737 -0.22500187
0002e0 c6 30 66 3d 75 52 e8 3c 63 c6 4c bd 82 e1 02 be
       0.056198858 0.028359631 -0.049993884 -0.12781337
0002f0 3a fd a6 bd 9e 38 b0 3d 9c 65 ab 3e 85 53 a5 3c
       -0.08153768 0.08604549 0.3347596 0.020181427
000300 4d 74 a6 be 35 7d 65 be 2b 8d 9a bf 66 05 b5 bd
       -0.32510605 -0.22411044 -1.2074331 -0.0883892
000310 56 d7 2b 3d e2 ad fd bd 3f 82 78 bd 87 0d 7d bd
       0.041953407 -0.12386681 -0.060671087 -0.06178048
000320 14 25 80 bd ef 5c 01 3e a0 18 d5 bd de 00 25 bd
       -0.06257072 0.12633108 -0.104050875 -0.04028403
000330 95 4c 0a bd 97 d6 dd 3d 3b 58 b2 3c 0d 9e 8e 3d
       -0.03376444 0.108319454 0.021770587 0.069637395
000340 48 bb a1 3e cc db 17 3e 77 e1 f0 bd 0e b9 a8 ba
       0.31588197 0.1482994 -0.11761754 -0.0012872533
000350 09 fe 92 3d 9a cb 01 3e 49 fa 43 3e d7 2d c0 ba
       0.071773596 0.12675324 0.19138445 -0.0014662099
000360 c5 d5 d3 3c ea 5b 90 bd 02 00 ad bd 69 29 05 bf
       0.02585877 -0.07048781 -0.08447267 -0.5201631
000370 fd cb e7 3a fd bb 30 3d 11 4d 89 3d 0b d5 55 bd
       0.0017684695 0.04314803 0.067041524 -0.052205127
000380 1e 11 01 be be 9c 3a bd 8c 2e 46 be 1b 8c 54 be
       -0.12604186 -0.045559637 -0.19353694 -0.20756571
000390 27 09 bb bc 70 b2 69 bd 28 1e 79 3d c0 9f 84 3e
       -0.022831513 -0.057054937 0.060819775 0.2590313
0003a0 2d b4 93 3b 08 b6 92 3c 53 2f 91 3e 8f f7 3d be
       0.0045075626 0.017909065 0.28356418 -0.18551467
0003b0 b2 af b7 3e 10 b8 5d 3d 5b 99 2c be ab fa f3 bd
       0.35876232 0.054130614 -0.16855375 -0.119130455
0003c0 b9 5f 65 3c f1 a9 00 3e 50 01 e6 bd e7 63 42 be
       0.013999873 0.12564828 -0.11230719 -0.18983422
0003d0 60 93 6f 3d 2a bd 9d bd c0 c2 0d 3f 64 e5 ab bd
       0.058490157 -0.07702096 0.5537529 -0.08393362
0003e0 ce 67 b7 3d 54 91 21 be 10 da 6f bd 83 81 a9 3c
       0.08955346 -0.15778095 -0.05855757 0.020691639
0003f0 90 40 64 3d 31 e0 62 bd ea 0e 5e bc b7 b8 1b be
       0.055725634 -0.055389587 -0.0135533605 -0.15207182

fc1.bias f4 [64]
000000 0a 49 28 3e c1 8a c3 bd 4b 2b 08 be cc 98 3b bd
       0.16434112 -0.095479496 -0.13297765 -0.045800015
000010 58 2b cb 3d e4 89 ad 3c 66 55 45 be 93 98 55 3d
       0.099203765 0.021183915 -0.19270858 0.05214746
000020 97 9b 32 bd 39 11 16 be 1f bf 21 3e 88 b1 f3 3d
       -0.043605413 -0.14655007 0.15795563 0.11899096
000030 26 33 f9 3d 51 a7 9a 3d 7e a9 3a bc a6 e0 a4 bd
       0.12167959 0.07551444 -0.011392949 -0.08050661
000040 09 5a cf 3d 33 aa 17 bd 03 1d cc bb f1 bc 74 be
       0.10124595 -0.03702755 -0.0062290444 -0.239002
000050 52 0b 7f bd 45 99 d2 3d 75 bf 04 bd 63 ec ea bc
       -0.062266655 0.1028314 -0.03240915 -0.028677171
000060 84 b0 aa bd ae e3 b6 3d 61 3f 02 3d 91 e4 2e be
       -0.08334449 0.08930145 0.031798724 -0.17079379
000070 b1 46 3c 3e e6 2d 88 3d 74 a4 e7 bd 84 a5 04 be
       0.18386342 0.066493794 -0.11310664 -0.12953764
000080 77 b1 34 3e 20 b6 81 bd a6 67 9a bd e5 c7 81 3d
       0.17645822 -0.06333566 -0.075393006 0.06336955
000090 8b 4f 40 bc 25 e8 ff 3b e8 4e b9 3d 2b da fc bd
       -0.0117377145 0.007809656 0.09048253 -0.123463
0000a0 89 76 63 bd 8c 48 f4 bc 85 a2 9a bd 4c 9e 3e 3e
       -0.055532966 -0.02981975 -0.075505294 0.18615073
0000b0 29 a1 04 bd 31 7b b0 bd 18 55 83 bb 16 35 7a be
       -0.032380257 -0.08617247 -0.0040079467 -0.24434313
0000c0 91 f0 21 be 62 f3 c2 3d c8 0e 9e bd 7a dd ee 3d
       -0.15814425 0.09519078 -0.07717663 0.11663337
0000d0 a3 a7 e5 bd 47 c1 6e bd 4b 79 50 be 40 0f 88 bc
       -0.11213615 -0.058289792 -0.2035877 -0.016608834
0000e0 f4 8a cd 3d d7 42 7a bd 3f 7e c1 bd cd 7a 31 be
       0.10036269 -0.0610989 -0.09447908 -0.17332001
0000f0 69 b8 0f 3d 82 6e f3 3d 9a 72 7a 3c f3 7b 6e 3d
       0.035087977 0.11886312 0.015286112 0.058223676

fc2.weight f4 [64, 64]
000000 dd f8 b3 3c f4 b0 c0 bd 2c 96 f8 3d ae 6a 46 3e
       0.021969253 -0.09408751 0.12138018 0.19376633
000010 fa 54 06 3e c8 40 d0 bd 7b f8 09 3e a0 fb 90 be
       0.13118353 -0.10168606 0.13473694 -0.28316975
000020 60 f9 ff 3c 09 b5 04 3e f2 01 d0 bd 97 76 a1 bd
       0.031246841 0.12959684 -0.10156621 -0.07883947
000030 7e a4 89 be f7 ed 9c 3d a9 3a 9e be 72 b1 18 3e
       -0.2688331 0.07662576 -0.3090413 0.1491144
000040 af 2b 6f be af 2b d1 bd 93 00 e0 3d 11 88 71 3d
       -0.23356508 -0.1021341 0.109376095 0.058967654
000050 50 d2 8a be db 7d 95 3d 32 03 99 bb 19 b0 a9 3c
       -0.2711358 0.07299396 -0.0046695704 0.020713853
000060 b8 b8 32 be c7 ac 0a 3e 07 e4 85 bd 68 fe c1 be
       -0.17453277 0.13542472 -0.065376334 -0.3788941
000070 26 ab b5 3c 18 bf 94 be 80 a0 1a 3e b3 7f 24 bd
       0.022176336 -0.29052043 0.15100288 -0.040160846
000080 4c e5 96 3c 03 61 59 be 4e 38 26 3e 7b 36 cc 3d
       0.018419884 -0.21228413 0.16232416 0.09971329
000090 f0 e4 10 be 4d 74 97 3e d1 17 17 be 12 a6 38 bf
       -0.14149833 0.29580918 -0.14755179 -0.72128403
0000a0 30 30 f9 be 53 16 62 3d 78 c7 c0 3d 2a d1 86 be
       -0.48669577 0.05519707 0.09413046 -0.26331455
0000b0 b8 00 9d 3d 00 92 b9 3c 37 5e 48 be 61 8b 12 3d
       0.07666153 0.022652626 -0.1956719 0.035777453
0000c0 56 0a ea be 1a b8 85 be d4 74 04 be f0 05 39 3d
       -0.4571101 -0.2611702 -0.12935191 0.045171678
0000d0 15 f4 ea bd 5e 74 21 be 7a e8 4c 3d a1 b3 19 bd
       -0.11472336 -0.15767047 0.050026394 -0.037524823
0000e0 ed 9f 86 bd bd fc cd 3c b4 8e 2b be 7f 5a 89 bd
       -0.06573472 0.025144929 -0.16753656 -0.06706714
0000f0 5e b3 2b bc 32 d4 e3 3d 8a 0a aa be 40 2c 6c bb
       -0.010479776 0.111244574 -0.33211166 -0.0036037117
000100 02 03 fa 3c 9e bc 43 3e 7c f2 39 bc 49 00 21 3e
       0.030519012 0.1911492 -0.011349317 0.15722765
000110 98 a1 8d 3b 86 66 b3 3d 63 d5 06 be 57 95 78 3d
       0.004322242 0.08759789 -0.13167338 0.060689297
000120 41 4f d3 bc 1c 72 57 bd 0e e9 5e bb 13 06 62 3e
       -0.025794627 -0.052599058 -0.0034013423 0.2207263
000130 29 ae 89 ba 2f 7f 70 3e 69 b7 a5 bb ce 0d 8a bc
       -0.0010504174 0.23486017 -0.0050572646 -0.016852286
000140 43 b7 d6 3d 51 a4 a0 3d 72 35 9e bd bf 13 ee 3b
       0.10484173 0.07843841 -0.07725038 0.0072655375
000150 9f cd 85 ba 54 79 9a bb 2d cb e5 3d 1c 09 86 bd
       -0.0010208375 -0.0047141705 0.11220393 -0.06544706
000160 48 e6 6a 3e f2 12 53 3d ae 1e ee bd 62 3d 53 bc
       0.22939408 0.05153174 -0.116269454 -0.012893053
000170 08 5b da 3d 6b 05 eb bd 88 c0 e3 3d ce 97 74 3d
       0.10661894 -0.11475643 0.11120707 0.059715085
000180 3a 50 47 bc a1 5b e3 3c c5 39 64 3d fc 71 46 3c
       -0.012165124 0.027753653 0.055719156 0.012112137
000190 50 a3 16 3d d8 f0 f8 3d b7 83 65 3e 4c 07 6f be
       0.03677684 0.12155312 0.22413526 -0.23342627
0001a0 91 6a 40 bd 6b f7 34 3d fb c3 94 3d 77 52 4f bd
       -0.04697663 0.04418127 0.07263943 -0.050615754
0001b0 78 a1 4a 3c 94 48 e6 bd 05 3b 28 bc 9d 18 0f bd
       0.012367599 -0.11244312 -0.010267978 -0.034935582
0001c0 08 d6 4b bc 32 97 63 be c6 2b 06 3d 62 bb bf 3e
       -0.012441166 -0.22225645 0.03275659 0.3744765
0001d0 26 da cf bd 1c 2d 21 bb d7 6b 06 3e bf ed a8 3d
       -0.101490304 -0.0024593538 0.13127075 0.082484715
0001e0 1f 80 9b bd f7 66 0a 3d 15 2e f0 3d 3a 74 f7 3d
       -0.075927965 0.0337896 0.117275394 0.12082715
0001f0 a0 de b7 be 7d 80 76 3e 0b b0 07 bc 1f 3a a7 ba
       -0.35912037 0.24072452 -0.008281718 -0.001275841
000200 00 f3 25 be eb c2 a8 be d4 d8 14 3d 5c bc 52 be
       -0.16205978 -0.3296121 0.036339596 -0.20579666
000210 9f db 25 bd ec a7 cb 3d ce 63 bc be dd 51 08 3d
       -0.04049265 0.09944138 -0.36794895 0.033281196
000220 06 1b 9f 3d d6 58 21 bd 09 39 aa 3d a3 c5 03 be
       0.07768826 -0.03939136 0.0831166 -0.12868361
000230 9e 5b 3c bd ea 6b 97 bd 22 2e 3b 3d 15 fd 48 bd
       -0.04598581 -0.0739363 0.045698293 -0.049069483
000240 51 fd b6 bb ab f5 03 bd 99 93 5f bc f9 8c 44 be
       -0.005584397 -0.03221671 -0.01364603 -0.19194402
000250 4e 22 4f be 2e ff a2 bc 84 25 00 be f5 98 87 3d
       -0.2022793 -0.01989707 -0.12514311 0.06620971
000260 16 3b b7 bb 2c a3 c9 3d 0e 18 88 3e 67 c8 91 bc
       -0.0055917604 0.09845576 0.26580852 -0.017795755
000270 b3 fc 7c 3c 42 df 88 3e c0 9e 45 3d 80 ab 5c 3d
       0.015441108 0.26732832 0.0482471 0.053874493
000280 33 9f 19 3d 02 c6 c6 bc 84 ae 46 be 1f fd b3 3d
       0.03750534 -0.02426434 -0.1940251 0.087885134
000290 f3 87 e1 3d 20 81 d6 bd e2 7c 6e 3e 6b 1f bf bd
       0.110122584 -0.104738474 0.23289827 -0.093321644
0002a0 16 74 e4 3e f0 2d 62 be 1d 27 d4 bd 5b 9a ba bd
       0.44619817 -0.22087836 -0.10359023 -0.09111472
0002b0 96 3f 0e be b2 20 ea ba 74 28 3d be ce bb c2 bd
       -0.13891444 -0.0017862527 -0.18472463 -0.09508477
0002c0 8a 2c d9 bd 69 c5 71 bd ad 44 32 be 0f c0 d2 bd
       -0.10604198 -0.059026156 -0.1740901 -0.102905385
0002d0 6f 5e 2d bd 71 02 0f be 43 d4 9d 3d f6 dd 6c be
       -0.042326387 -0.13965775 0.07706501 -0.23131546
0002e0 26 30 86 bd 64 db ee bd 54 a3 d6 bd 15 e8 46 be
       -0.06552152 -0.11662939 -0.10480371 -0.1942447
0002f0 20 97 bf 3d dc 26 5a bd 61 72 43 3e 88 13 55 3c
       0.09354997 -0.053259715 0.19086601 0.013005145
000300 7c 9b d5 bc 64 fc e9 bd 02 76 1f 3d 16 98 4a be
       -0.026075117 -0.11425093 0.0389309 -0.19784579
000310 19 9c 99 3d 9b b1 8a bc 46 14 14 3d ba f9 0b be
       0.075004764 -0.016930392 0.036152147 -0.13669482
000320 42 e2 0b be 6a a8 e8 bd e4 13 6c bd d8 c3 9d bd
       -0.1366053 -0.113602474 -0.057636157 -0.0770337
000330 75 a0 43 bd 8b c1 85 be 35 84 15 bd c4 04 be bd
       -0.047760446 -0.26124224 -0.036503036 -0.09278253
000340 f9 f7 0e bd 53 76 14 be 6c 45 84 3d 03 11 4d be
       -0.034904454 -0.14498262 0.06458554 -0.2002602
000350 57 da 8f 3c b2 2c e3 3e be 90 56 3d f4 23 21 3f
       0.017560167 0.44370037 0.05238413 0.62945485
000360 3f a3 27 be e4 00 2f 3e 78 a8 52 3d 08 71 75 bd
       -0.16370867 0.17090183 0.051430196 -0.059922248
000370 13 8c 5e 3d 78 79 28 bd 6f 5b c3 3d 21 38 c3 3d
       0.054332804 -0.041131467 0.09538924 0.0953219
000380 1b 7a 8a 3c 00 34 00 3e 5b 84 b4 bd 32 d6 a7 3d
       0.016903928 0.12519836 -0.08814307 0.081951514
000390 a5 6b 9b 3d 62 70 d0 bc 31 62 1f be e0 e6 db bd
       0.07588891 -0.025444213 -0.15564801 -0.10737395
0003a0 47 f3 33 bd 41 33 d6 bc a2 02 23 3d 12 d4 bf bc
       -0.04393318 -0.026147487 0.039797433 -0.023416553
0003b0 da 9f 8a 3c a7 4f 46 3d 01 28 7b 3d a3 c0 fe bc
       0.016921926 0.048415806 0.061317448 -0.031097716
0003c0 a0 e2 85 bc d1 d1 7f 3e 53 5d 5f be 15 2b 1b bd
       -0.016343415 0.24982382 -0.21812944 -0.037882883
0003d0 0e 0a e4 3c d0 9c dc be 89 75 1a 3d c6 14 f5 3d
       0.027836826 -0.43088388 0.037709747 0.11966853
0003e0 8b e8 14 be 4f 7b 34 be 89 4a 81 3d f2 0f db 3c
       -0.14541833 -0.17625163 0.063130446 0.026741002
0003f0 0a c9 db 3d 16 19 8b bd 9c 39 28 be e2 f8 24 be
       0.107317045 -0.06791894 -0.16428226 -0.16110566

fc2.bias f4 [64]
000000 43 89 0f bd 0a b9 5e 3c af a1 b3 3d 11 6f 7e 3d
       -0.035043012 0.013593921 0.08771073 0.06211764
000010 1e a9 2b 3e c6 0c 0a be c9 14 f2 bd a8 ac b9 3d
       0.16763732 -0.13481435 -0.11820371 0.09066135
000020 3a a2 f3 3d 01 e6 2b 3e 48 57 1a 3d 66 2f d9 3d
       0.11896177 0.16786958 0.037680894 0.10604744
000030 95 d6 0d 3d 84 4a cb bd 77 23 be bd 62 47 29 3e
       0.03462847 -0.09926322 -0.09284108 0.16531137
000040 95 e7 b5 bd 53 09 41 bd 6e d3 4d bd ca 31 17 bd
       -0.088820614 -0.047128033 -0.050250463 -0.036912717
000050 e8 73 f1 3d 44 b7 44 3e 0e 8e 1e bd 05 d5 ee bd
       0.117896855 0.19210535 -0.038709693 -0.11661724
000060 36 19 35 bd 73 73 9e 3c f8 ee f9 3c 05 59 b5 bd
       -0.044213496 0.01934216 0.030509457 -0.0885487
000070 0b ea 9c bd 61 3a 1e 3d be 34 fb 3d 03 fe 91 bd
       -0.07661828 0.038629893 0.12265919 -0.07128527
000080 71 66 03 3c b5 f1 23 3d f9 8f a2 bd 95 4c 19 bd
       0.008020029 0.04002543 -0.07937617 -0.03742655
000090 35 a8 8a bd 9b d3 c9 bd bb 95 ca 3b f5 69 34 be
       -0.06770364 -0.09854814 0.0061824 -0.17618544
0000a0 2e e9 1d be b1 e3 76 3d dc 33 6a 3d 46 c1 f2 bb
       -0.15420982 0.060275737 0.057178363 -0.007408294
0000b0 77 dd d7 ba cd 84 4a bd 56 15 a0 bd 56 53 0b be
       -0.00164692 -0.049443055 -0.078165695 -0.13606009
0000c0 97 82 bb 3d 9d 36 df bd 52 e1 fb bd 92 89 50 3e
       0.091557674 -0.108990885 -0.12298836 0.20364979
0000d0 4e c3 a0 bd 7a e4 ac bd 7f a5 9c bd 8a 57 1e be
       -0.078497514 -0.08442016 -0.076487534 -0.15463081
0000e0 a7 f0 0a be 2a 6e 98 bd 43 f8 7b 3c 4e 50 05 3e
       -0.13568364 -0.07442887 0.015379014 0.13018915
0000f0 64 ec ef 3d ad 1d 52 3d 76 77 8e 3c 1d 9d 4a be
       0.1171501 0.051297832 0.017390948 -0.19786496

fc3.weight f4 [64, 64]
000000 e5 5f 16 3e 4b 36 fb 3d 7c 1d 10 3e d0 8e de bd
       0.14685018 0.12266215 0.14073747 -0.10867083
000010 5c 4a 7d 3c a2 18 35 3d d1 94 a2 3e 23 6c 03 bc
       0.015459623 0.044212945 0.31754163 -0.008021387
000020 cd 95 f0 3d 76 ce fa bd 1d ff e1 be 2d 68 5b 3c
       0.11747322 -0.122464105 -0.44139948 0.013391537
000030 f4 05 5c be 0d a8 c2 3d 73 0a 73 bd 5d 0f b3 be
       -0.21486646 0.095047094 -0.059336137 -0.3497266
000040 a5 60 b2 3c 84 7f 2c bc 8f 06 19 be 89 a5 fc 3d
       0.0217746 -0.010528449 -0.14943908 0.12336261
000050 4a 47 8c 3e c5 31 80 3d bf a8 df 3d dd 47 10 be
       0.2739814 0.06259493 0.10920858 -0.14089914
000060 3b 19 37 3e 4b a3 53 be e9 e9 81 bc 01 57 90 be
       0.17880718 -0.2066776 -0.015858607 -0.2819138
000070 38 ea e1 3e f0 a0 a2 3d eb 39 19 be f5 c5 d9 bd
       0.44124007 0.07940853 -0.149635 -0.106334604
000080 84 b7 fb bd 76 d7 80 be 1d c3 17 bd 63 36 9b be
       -0.12290862 -0.25164384 -0.03705131 -0.3031493
000090 62 4b 11 3e fb fa 94 bd fb c1 7a bc ce ee c8 3d
       0.14188913 -0.07274433 -0.015305038 0.098111734
0000a0 4e 07 3a 3d 3e 4e 11 3d bb ab f8 3d d3 9b 31 3d
       0.045417123 0.03547501 0.1214213 0.043361496
0000b0 7a 38 e3 3d 1a be 47 be 9a e6 ba 3c 37 8f 50 3e
       0.110947564 -0.19506112 0.022815038 0.20367132
0000c0 e2 b7 3b be e3 ba 29 3e fa c2 87 be 11 1a 21 3d
       -0.18331864 0.16575198 -0.26515943 0.0393315
0000d0 18 d4 45 bc 09 ae 8c be 7b e5 e7 3d a0 f8 3e 3e
       -0.012074493 -0.27476528 0.11323067 0.1864953
0000e0 01 ac 60 3e 1c d2 71 be 99 5d e8 bc 11 e4 b2 3d
       0.21940614 -0.23615307 -0.028364943 0.087349065
0000f0 7e 05 0f bd 4f 4c 84 3e d9 87 37 be 55 3c 71 be
       -0.034917347 0.2583947 -0.17922916 -0.23558171
000100 0d bd 4f 3e 1f f2 6b 3d e9 a2 31 3e de 93 a1 bd
       0.20286961 0.05760395 0.17347302 -0.078895316
000110 5a bd 2b bc b1 32 99 3d 54 e0 7d 3d 56 7f 4a 3d
       -0.010482157 0.07480372 0.061981514 0.049437843
000120 4c be 8f be 1d d4 a2 3d 8f 12 d9 3d 6b d1 f8 bd
       -0.28074872 0.07950614 0.10599243 -0.12149318
000130 1b 8f d9 bd d0 87 3d be eb a3 57 bc ea 6a a3 3b
       -0.10622998 -0.1850884 -0.01316164 0.0049871104
000140 4e 76 85 bc 16 03 09 be 78 54 f4 bd 5d 8a eb 3d
       -0.016291764 -0.13380083 -0.11930174 0.11501
000150 90 38 55 3e 82 1b 58 bc fd e6 57 bc 22 ff 96 3d
       0.20822358 -0.013190152 -0.0131776305 0.073728815
000160 2e 1b 0f 3e b1 5b eb be e1 38 39 3e a8 fc bd bd
       0.13975212 -0.45968392 0.18088104 -0.09276706
000170 8f fa 3a 3e 14 a2 93 3e 93 70 79 3d 62 05 46 3d
       0.18259643 0.28834593 0.060898375 0.048344977
000180 fa 69 fa 3c c0 9e aa 3c d2 7a 41 3e a5 1b 8e 3c
       0.030568112 0.020827651 0.18894508 0.017347166
000190 01 aa 9e 3c 6e 17 aa 3d b2 17 db 3d b7 48 33 be
       0.019368174 0.0830525 0.10697879 -0.17508207
0001a0 5e 11 c7 3d 43 11 ff 3d 9f 6e 0a 3d 98 ee 42 3e
       0.097201094 0.12454464 0.033796903 0.19036329
0001b0 79 13 a3 be dd 78 83 be 1a bf da 3d 46 7e 3c be
       -0.31850794 -0.2567815 0.10680981 -0.18407544
0001c0 ed d4 a0 3e f1 3c ec 3d 47 b0 a0 3d c4 55 89 bd
       0.3141245 0.11535061 0.07846122 -0.067058116
0001d0 41 77 5a 3e 55 a5 b8 be e8 42 6f 3e 10 33 1a be
       0.21334554 -0.36063638 0.23365366 -0.15058541
0001e0 90 27 e0 3d 8e 22 b3 be 89 4b 10 3e a5 1c e2 bd
       0.10945046 -0.349873 0.14091314 -0.1104062
0001f0 61 34 0f 3d 7f 35 84 bd 28 df 50 3e fa 91 fc 3d
       0.03496206 -0.06455516 0.20397627 0.1233253
000200 12 56 3e be cd 1a 41 be 45 e0 80 3e 48 a2 a1 bd
       -0.1858752 -0.1885788 0.25171104 -0.07892281
000210 08 75 e8 bc df fb 8c 3e c0 55 14 3e a9 b9 27 3e
       -0.028376117 0.27535912 0.14485836 0.16379417
000220 cd ab e5 bd 42 0a 64 3c 5a 1d 8b be 1e b9 1a bd
       -0.11214409 0.013918461 -0.2717083 -0.037774198
000230 f3 f7 7b 3e 23 cc cb be 1e bc bc bd 3a 7a 94 3d
       0.24606304 -0.3980418 -0.09215568 0.07249875
000240 d7 88 0b 3d 93 f0 64 3d 20 e7 6b be f7 ad 30 bd
       0.034066048 0.055893492 -0.23037386 -0.043134656
000250 bc 0b 86 bd 12 3c 03 3e 1f 59 f9 bd ac 30 33 3d
       -0.06545207 0.12815884 -0.121752016 0.04374759
000260 9e ea 4a 3e 1d b0 1e 3d 9f 38 92 be 4f 84 f5 3d
       0.19816062 0.038742173 -0.28558823 0.119881265
000270 71 2e c9 3d 16 13 2b bd 49 06 71 be d2 d3 28 3c
       0.09823311 -0.04176625 -0.23537554 0.010304408
000280 91 1c 53 bd be 29 96 be fb 63 b1 3e 2c 51 68 3e
       -0.051540915 -0.29328722 0.34646592 0.22687215
000290 3a bc 9e 3a 6d 48 5c be 3f f1 b2 be 8e f2 fa bb
       0.0012110539 -0.21512003 -0.3494968 -0.0076583093
0002a0 03 90 8f 3d 11 5e b9 3d 98 32 89 3d 58 c2 8c be
       0.0700989 0.09051145 0.06699103 -0.27492023
0002b0 e6 bc 6c 3e a9 69 4d be 62 ca f9 bd 67 0d 85 3e
       0.23118934 -0.20059837 -0.121968046 0.25986788
0002c0 39 dc c3 3d c2 85 eb 3d d0 7d dd bd 33 a6 db 3d
       0.095634885 0.11500122 -0.108150125 0.10725059
0002d0 0d 79 f3 bd f3 7a 20 be 6e 6c 78 3d fd 3c 63 be
       -0.11888323 -0.15671901 0.06065028 -0.22191234
0002e0 85 13 bf be 3d 5f 22 3d d2 b6 08 3e 11 c9 71 bc
       -0.3731958 0.039641608 0.1335099 -0.014757411
0002f0 15 f3 e6 bd 42 37 86 be c3 04 19 3e 21 03 97 bc
       -0.11276833 -0.26214033 0.14943223 -0.01843411
000300 60 d2 9f 3e 7a 61 45 3e 2f 3e 90 3c 05 ae 43 bd
       0.3121519 0.19275466 0.017607776 -0.04777338
000310 8b 92 35 3d 7d ab 13 bd ca 9e 63 be 28 8c 7e 3d
       0.044329207 -0.036052216 -0.22228542 0.062145382
000320 d3 54 19 3d 2f 7b e5 3d 9c 87 70 3d 77 e8 b6 bd
       0.03743441 0.11205136 0.058723077 -0.08931058
000330 58 af 25 3e 4c 40 29 3e ed c1 3a 3d ef 9c 06 bd
       0.1618017 0.16528434 0.0455951 -0.032864507
000340 25 b5 30 3e cb 11 0f be 08 7c 57 3e 46 28 0c 3e
       0.17256601 -0.13971631 0.21043408 0.13687238
000350 84 f4 3d bd 40 27 82 3e 7c f4 ee bc f5 73 bc 3d
       -0.046375766 0.2542057 -0.029169314 0.092018045
000360 91 63 03 3e 85 70 07 bf 61 02 fe 3d ec e7 2c 3d
       0.1283095 -0.52906066 0.124027975 0.042213365
000370 2f 0a ce bd 57 06 14 3e 6f ac 40 3d fb 3d c2 bc
       -0.10060536 0.14455543 0.047039445 -0.023711195
000380 13 b9 4b 3d ca 04 e7 3d 74 74 fb bd ab 6d 27 3e
       0.049737047 0.1128021 -0.12278071 0.16350429
000390 8b a3 a8 3b 62 e8 ed 3c b3 08 a2 3d 87 2d 24 bd
       0.005146449 0.029041473 0.079118155 -0.04008248
0003a0 28 07 b1 bd 8c a3 1a 3d bd ca 60 3d e5 d0 85 bd
       -0.08643943 0.037753627 0.054880846 -0.06533984
0003b0 14 24 d5 bc a3 98 8a 3d 75 ce 80 3d 6c a5 ed 3d
       -0.02601818 0.067673944 0.062893786 0.11603817
0003c0 2f b1 79 be a8 1d 0b bc 4a cd b6 3d e5 22 4a bb
       -0.24383996 -0.008490957 0.089258745 -0.0030843553
0003d0 b4 f0 64 3e 7e 56 88 be 5a 1c cf 3c 3d 23 49 3e
       0.22357446 -0.26628488 0.025282074 0.19642349
0003e0 c9 02 e0 bd e3 94 41 be ad 50 21 be 48 19 6b be
       -0.10938031 -0.18904452 -0.15753432 -0.22958863
0003f0 cc ee 93 3d a6 e6 1c 3d e1 66 e2 3d 43 d2 04 be
       0.07223281 0.0383059 0.11054779 -0.12970833

fc3.bias f4 [64]
000000 2b f0 03 ba f9 75 9d bd e5 30 90 bd bf 23 06 3d
       -0.0005033041 -0.07688517 -0.07040576 0.032748934
000010 35 6f 6e bd 70 0f 13 3e 0b 2b b8 bd a3 c5 cd 3d
       -0.058211524 0.14361358 -0.08992585 0.10047462
000020 3e 89 c1 bd 68 49 9a 3e a7 66 b4 3e f3 e2 f4 bd
       -0.09450005 0.3013413 0.35234568 -0.1195735
000030 75 56 19 3e 5b 22 d7 3c 40 b5 ac bd 38 7c c0 bd
       0.14974387 0.0262615 -0.08433008 -0.09398693
000040 08 bc 1b be b8 1a e6 3d b1 4b 7e 3d f6 b5 9f 3e
       -0.15208447 0.11235565 0.062083904 0.31193513
000050 fa 76 80 3e 39 87 50 3e eb 6f 68 3e c6 35 a2 3d
       0.25090772 0.20364083 0.22698943 0.07920413
000060 c3 a7 9e be 50 5a f9 3d ee 36 7c bb b5 f8 f6 3d
       -0.30987367 0.12175429 -0.003848489 0.12059156
000070 03 24 66 3d b5 90 86 3e 61 f4 0b be 25 a9 8c be
       0.056186687 0.26282278 -0.13667442 -0.27472797
000080 1b ce 1f be 7d 11 97 3d db 5a 9c 3e cf 85 78 3c
       -0.15605967 0.073763825 0.30538067 0.015168621
000090 34 fb 5e be a4 98 10 3e f8 65 d9 3d 23 e8 32 3c
       -0.21775514 0.14120728 0.10615152 0.0109196035
0000a0 c4 6f e0 bd 5a cf 2c 3d c7 eb b3 bb a3 73 77 3c
       -0.109588176 0.042189933 -0.0054907533 0.015103254
0000b0 ea c9 9a bd 92 bc 6a bd a6 bc 4f bd 4a 81 85 bd
       -0.07558043 -0.05730874 -0.05071702 -0.065188006
0000c0 96 d5 47 bd 2d d0 9d 3e fc e8 b2 bc 23 28 2c 3e
       -0.048787676 0.30822888 -0.021839611 0.16812186
0000d0 cf 59 21 bd e0 94 36 bd 17 88 15 3e ec 48 a7 3d
       -0.03939229 -0.044575572 0.14602695 0.081682056
0000e0 93 bc 22 3d 5c 23 0e be 4e 03 b2 3e ed c0 9d bd
       0.03973062 -0.13880676 0.34768146 -0.07702813
0000f0 68 d4 6a be 2c 5e 13 3e e6 77 ca bd 92 cf 69 be
       -0.22932589 0.14391392 -0.0988615 -0.22833088

fc4.weight f4 [4, 64]
000000 83 61 61 3d 8f 17 4a be 92 85 70 3b b6 d5 1f 3b
       0.055024635 -0.1973555 0.0036700708 0.0024388856
000010 15 3d 92 bd 36 2e 5b 3e b7 29 8e bc d0 45 d0 3b
       -0.07140557 0.21404347 -0.017353876 0.0063559785
000020 ca 23 94 3e 0f 94 3c 3e d6 6a 41 3e 05 e6 45 3c
       0.28933555 0.18415855 0.18888411 0.012078767
000030 9f cd f4 3d 2c d7 ac 3e 3f 03 61 3d 01 12 d3 bd
       0.119532816 0.33757913 0.054934736 -0.10306168
000040 5d d2 d0 3c c4 b6 b9 3d ce 1a 3d 3e a7 25 d0 3d
       0.025490934 0.09068063 0.18467256 0.101634316
000050 2e 95 98 3d 86 22 f8 3d 3e 5c 06 3e a5 a1 bd 3e
       0.07450329 0.1211596 0.13121125 0.37037387
000060 41 99 95 be 6b b5 a5 3d 10 85 b7 3e d7 6c cb 3e
       -0.29218486 0.08091243 0.35843706 0.39731476
000070 c5 0d 33 bc 83 a5 4e 3e a3 d1 a7 be 9a 41 8b bd
       -0.010928576 0.20180325 -0.32777128 -0.06799622
000080 83 11 b8 3d d1 7d d1 be 47 ef 4f 3e 88 68 65 3e
       0.08987715 -0.40916303 0.20306121 0.22403157
000090 e3 03 13 be 81 56 82 3d e3 99 1d 3e 88 ec a3 3e
       -0.14356951 0.063641556 0.15390734 0.32016397
0000a0 c3 f0 69 bd a2 99 bf 3d 48 61 96 bd f9 66 a1 3d
       -0.057114374 0.09355475 -0.07342774 0.078809686
0000b0 8b 58 1e be 5f 98 f1 39 bb 79 00 3d 6c d6 72 bc
       -0.15463464 0.00046080627 0.03136609 -0.01482163
0000c0 92 64 8f 3c ef 03 72 3e e2 eb 5c 3c 84 5f 8a 3c
       0.01750401 0.23634313 0.013483973 0.016891249
0000d0 6e 16 b7 be c5 1d 13 3c b7 15 ef 3d ee 0e d6 3c
       -0.357593 0.008979266 0.11674064 0.026130166
0000e0 4c 37 f2 3e d6 47 19 be 1e 9f f8 3d 55 f9 a4 bd
       0.47307813 -0.1496881 0.12139724 -0.08055369
0000f0 19 46 c2 bd ab ea 7d 3e b1 39 a3 3d 67 88 8a be
       -0.09486026 0.2479655 0.07969988 -0.27057192
000100 e7 55 a7 3e 34 82 6f bc cb bb 5a be fb 87 34 3e
       0.32682726 -0.014618445 -0.213607 0.17629997
000110 3b 12 4c bd ae ca 00 3d a3 e6 1d 3e fd 39 a6 3e
       -0.049822073 0.03144329 0.15420012 0.32466117
000120 8d 37 99 be 7a 16 05 3c a8 04 90 3e a3 2a a6 bc
       -0.29925194 0.008123035 0.28128552 -0.020284003
000130 36 0f 22 3e ac 3b 8c 3e 26 50 dd bd 9f a3 a3 3d
       0.15826115 0.27389276 -0.10806303 0.079901926
000140 13 e5 94 3e 47 dc 81 3e b2 3e 1b 3d 43 5f 1f 3e
       0.2908102 0.2536337 0.037901588 0.15563683
000150 17 33 f1 3d e0 d0 89 3c 0c 00 4b 3e 34 db 9b 3e
       0.11777323 0.016823232 0.19824237 0.30440676
000160 3c 9d 91 be 8d a1 06 3c 5c 5f 9d 3e 13 95 25 3e
       -0.28440273 0.008217228 0.30736816 0.16170149
000170 94 47 80 3e cf b1 51 3e 2e ea 2f be 7a 98 af bd
       0.2505461 0.20477985 -0.17179176 -0.085740045
000180 8a 73 9c 3e a0 10 0a be 02 40 e2 3c f6 32 39 3e
       0.305569 -0.13482904 0.027618412 0.18085846
000190 20 88 83 be 1f 03 7f 3e 2c dd 61 3e f3 ad 70 3e
       -0.25689793 0.24903534 0.22057027 0.23503856
0001a0 99 af ad 3e 24 a1 85 be b6 be 74 bd 37 c8 bf 3d
       0.33923033 -0.26099503 -0.05975219 0.0936436
0001b0 1e 0b ab bd fa 02 a6 bd 70 5f b5 3e d2 70 9f be
       -0.0835173 -0.081060365 0.35424376 -0.31140763
0001c0 90 91 0c 3e 10 1a b8 3c 31 6d 1e bd 62 d1 82 3e
       0.13727403 0.022473365 -0.03867835 0.2555037
0001d0 52 a5 a1 3e 65 a7 79 bc 4c cd 37 3e 37 09 cb 3c
       0.31571442 -0.015237664 0.17949408 0.024784667
0001e0 bc 8e 13 3e 40 d7 96 bd 75 59 d4 3d e8 a6 de ba
       0.14409918 -0.073652744 0.10368625 -0.0016986998
0001f0 1f ce 93 be 88 f7 7a 3e f0 27 c8 bd 42 7b 3d be
       -0.28868195 0.24508488 -0.097732425 -0.1850405
000200 50 9e d9 3e 49 29 1b be b8 21 b5 3e d8 d3 03 3e
       0.42503595 -0.15152468 0.35377288 0.1287378
000210 dc 83 09 be 02 bc 9e bd 46 5c 29 be 21 7e f1 bc
       -0.13429207 -0.077507034 -0.16539106 -0.029479088
000220 63 e8 88 be d6 5e 44 3e 80 63 54 3e 4e 7e 2f 3e
       -0.26739797 0.19176802 0.20741081 0.17138025
000230 64 70 af 3e a5 1b 4c 3e dd 44 41 3e fd 7f ee 3d
       0.34265435 0.1993242 0.18873926 0.116455056
000240 56 96 d0 be 70 e6 8b 3e 4c c3 30 3e 1c ac 3d 3e
       -0.40739697 0.27324247 0.17262 0.18522686
000250 5f e2 2a 3e 54 02 9e bc 6a 66 1e bc 98 61 9b 3e
       0.16687916 -0.01928822 -0.009667972 0.30347896
000260 bb c9 bc be aa f4 85 3e c9 64 86 be f0 85 91 bd
       -0.36872658 0.26163226 -0.26248768 -0.07105625
000270 d3 12 f3 bc 7c 40 02 3e 85 e6 92 be 12 43 e4 bc
       -0.029672062 0.12719911 -0.28691497 -0.027864013
000280 57 24 14 3e f7 7c 85 be 6b 7d 24 3e 1c 06 18 3e
       0.14466988 -0.26071903 0.16063468 0.1484608
000290 19 db 2b 3d d4 d9 eb 3b 72 bb 74 bd 51 77 52 bd
       0.041956995 0.007197598 -0.059749074 -0.05138332
0002a0 10 bc 8f be 19 d2 88 be 79 7d 88 3c 67 a5 9f 3e
       -0.28073168 -0.26722792 0.016661393 0.3118088
0002b0 49 b4 09 be 27 d3 97 3e cc ca fa bd 00 17 6c be
       -0.1344768 0.29653284 -0.12245712 -0.23055649
0002c0 33 bb 14 3c 4c 9b 2b 3e de 8c fa bd 52 dd 2b 3e
       0.009077835 0.1675846 -0.122338995 0.16783646
0002d0 a1 5c 2d be d8 ae c2 3d d1 7b e7 3d 58 35 27 3e
       -0.16929866 0.09506005 0.11302913 0.16328943
0002e0 ea 15 8c 3e 35 24 9d 3d ed 32 e7 3d c0 5e 15 3d
       0.2736047 0.076729216 0.1128901 0.036467314
0002f0 1d 1e 8d be ee 89 c7 3d 18 9c 7a be 70 50 d7 3d
       -0.27562037 0.09743105 -0.24473608 0.10513389
000300 55 0c ed bb 85 8c d8 bc 3d 2c b0 3e a5 68 f1 3d
       -0.007234136 -0.026434192 0.3440875 0.117875375
000310 0a 77 ac bd d0 3a 5c 3d 11 cd ba be d5 87 b1 3e
       -0.084211424 0.053767025 -0.36484578 0.34673944
000320 61 47 01 bd 67 2e 3e 3e b6 91 29 3e 68 bd a3 3d
       -0.031562213 0.18572389 0.1655949 0.07995111
000330 f7 a8 f2 3d e7 a0 99 bd 4b 3b 8a be 6d ce 06 be
       0.11848634 -0.07501393 -0.26998362 -0.13164683
000340 b3 1d 95 bd 22 c7 73 3d 64 50 0f 3e 9b f4 00 3e
       -0.07281055 0.05951608 0.1399551 0.1259331
000350 d0 a3 24 3e 26 8b 5a 3e f0 e3 11 3e 88 8e 01 be
       0.16078115 0.21342143 0.14247108 -0.12652028
000360 2b 7f e1 bc ed e0 4b 3e 1e bc 99 bd f7 bc 61 3e
       -0.027526459 0.19910021 -0.07506584 0.2204474
000370 86 dd 06 3e b2 39 93 3d 8c ba 34 be 3e ef 29 be
       0.13170442 0.07188739 -0.17649287 -0.1659517
000380 34 25 9f bd 63 b0 ad be 73 9a 0b 3e 49 48 f9 39
       -0.07770768 -0.33923635 0.13633136 0.00047546838
000390 9e f9 83 bd 1b 8e 94 3d 68 3c 09 3d 1d ed a4 3e
       -0.06444095 0.07253667 0.033504874 0.32212153
0003a0 60 2a b2 3e a3 c3 27 3d 90 75 32 bd 0e 5f 9f 3e
       0.34797955 0.040958058 -0.043569148 0.31127208
0003b0 64 ba 5f be 34 fb 4d 3e 4a 47 ea 3c ee c8 37 3d
       -0.21848446 0.20115358 0.028598446 0.044869356
0003c0 79 76 bb 3e b3 f0 db 3d ff 0d d4 bc f9 db 30 3e
       0.36613825 0.10739269 -0.02588558 0.17271413
0003d0 5a 0a b7 bd 67 9c 65 bd 9e 9a 44 bd 2d 15 ab 3e
       -0.08937521 -0.05605736 -0.047999017 0.33414593
0003e0 5d 08 38 3e a2 17 aa be 27 6b 45 3e b4 29 38 3d
       0.1797194 -0.33221155 0.19279157 0.044961646
0003f0 cc 0a 25 be 31 de 23 3e 96 55 4c be 41 28 ed be
       -0.161174 0.16002728 -0.19954523 -0.46319774

fc4.bias f4 [4]
000000 ee eb f4 3d f4 cf 15 3e 3f df 2e 3e ba 7d 02 3e
       0.119590625 0.14630109 0.17077349 0.12743273
